module attributes {llvm.data_layout = "e-i64:64-i128:128-v16:16-v32:32-n16:32:64", llvm.target_triple = "nvptx64-nvidia-cuda"}  {
  llvm.mlir.global internal constant @str11("memcpy device > device\00")
  memref.global "private" @_ZN8dwt_cudaL10scale97MulE : memref<1xf32> = uninitialized
  memref.global "private" @_ZN8dwt_cudaL10scale97DivE : memref<1xf32> = uninitialized
  memref.global "private" @_ZN8dwt_cudaL10f97Update2E : memref<1xf32> = uninitialized
  memref.global "private" @_ZN8dwt_cudaL11f97Predict2E : memref<1xf32> = uninitialized
  memref.global "private" @_ZN8dwt_cudaL10f97Update1E : memref<1xf32> = uninitialized
  memref.global "private" @_ZN8dwt_cudaL11f97Predict1E : memref<1xf32> = uninitialized
  llvm.func @fclose(!llvm.ptr<struct<(i32, ptr<i8>, ptr<i8>, ptr<i8>, ptr<i8>, ptr<i8>, ptr<i8>, ptr<i8>, ptr<i8>, ptr<i8>, ptr<i8>, ptr<i8>, ptr<struct<"struct._IO_marker", (ptr<struct<"struct._IO_marker">>, ptr<struct<"struct._IO_FILE", (i32, ptr<i8>, ptr<i8>, ptr<i8>, ptr<i8>, ptr<i8>, ptr<i8>, ptr<i8>, ptr<i8>, ptr<i8>, ptr<i8>, ptr<i8>, ptr<struct<"struct._IO_marker">>, ptr<struct<"struct._IO_FILE">>, i32, i32, i64, i16, i8, array<1 x i8>, ptr<i8>, i64, ptr<i8>, ptr<i8>, ptr<i8>, ptr<i8>, i64, i32, array<20 x i8>)>>, i32, array<4 x i8>)>>, ptr<struct<"struct._IO_FILE", (i32, ptr<i8>, ptr<i8>, ptr<i8>, ptr<i8>, ptr<i8>, ptr<i8>, ptr<i8>, ptr<i8>, ptr<i8>, ptr<i8>, ptr<i8>, ptr<struct<"struct._IO_marker", (ptr<struct<"struct._IO_marker">>, ptr<struct<"struct._IO_FILE">>, i32, array<4 x i8>)>>, ptr<struct<"struct._IO_FILE">>, i32, i32, i64, i16, i8, array<1 x i8>, ptr<i8>, i64, ptr<i8>, ptr<i8>, ptr<i8>, ptr<i8>, i64, i32, array<20 x i8>)>>, i32, i32, i64, i16, i8, array<1 x i8>, ptr<i8>, i64, ptr<i8>, ptr<i8>, ptr<i8>, ptr<i8>, i64, i32, array<20 x i8>)>>) -> i32
  llvm.mlir.global internal constant @str10("%s, %s, %.17g, %s, %s, %d,\0A\00")
  llvm.mlir.global internal constant @str9("polygeist\00")
  llvm.mlir.global internal constant @str8("HOSTNAME\00")
  llvm.func @fprintf(!llvm.ptr<struct<(i32, ptr<i8>, ptr<i8>, ptr<i8>, ptr<i8>, ptr<i8>, ptr<i8>, ptr<i8>, ptr<i8>, ptr<i8>, ptr<i8>, ptr<i8>, ptr<struct<"struct._IO_marker", (ptr<struct<"struct._IO_marker">>, ptr<struct<"struct._IO_FILE", (i32, ptr<i8>, ptr<i8>, ptr<i8>, ptr<i8>, ptr<i8>, ptr<i8>, ptr<i8>, ptr<i8>, ptr<i8>, ptr<i8>, ptr<i8>, ptr<struct<"struct._IO_marker">>, ptr<struct<"struct._IO_FILE">>, i32, i32, i64, i16, i8, array<1 x i8>, ptr<i8>, i64, ptr<i8>, ptr<i8>, ptr<i8>, ptr<i8>, i64, i32, array<20 x i8>)>>, i32, array<4 x i8>)>>, ptr<struct<"struct._IO_FILE", (i32, ptr<i8>, ptr<i8>, ptr<i8>, ptr<i8>, ptr<i8>, ptr<i8>, ptr<i8>, ptr<i8>, ptr<i8>, ptr<i8>, ptr<i8>, ptr<struct<"struct._IO_marker", (ptr<struct<"struct._IO_marker">>, ptr<struct<"struct._IO_FILE">>, i32, array<4 x i8>)>>, ptr<struct<"struct._IO_FILE">>, i32, i32, i64, i16, i8, array<1 x i8>, ptr<i8>, i64, ptr<i8>, ptr<i8>, ptr<i8>, ptr<i8>, i64, i32, array<20 x i8>)>>, i32, i32, i64, i16, i8, array<1 x i8>, ptr<i8>, i64, ptr<i8>, ptr<i8>, ptr<i8>, ptr<i8>, i64, i32, array<20 x i8>)>>, !llvm.ptr<i8>, ...) -> i32
  llvm.mlir.global internal constant @str7("could not open timing file %s, errno %d, %s\0A\00")
  llvm.mlir.global external @stderr() : !llvm.ptr<struct<(i32, ptr<i8>, ptr<i8>, ptr<i8>, ptr<i8>, ptr<i8>, ptr<i8>, ptr<i8>, ptr<i8>, ptr<i8>, ptr<i8>, ptr<i8>, ptr<struct<"struct._IO_marker", (ptr<struct<"struct._IO_marker">>, ptr<struct<"struct._IO_FILE", (i32, ptr<i8>, ptr<i8>, ptr<i8>, ptr<i8>, ptr<i8>, ptr<i8>, ptr<i8>, ptr<i8>, ptr<i8>, ptr<i8>, ptr<i8>, ptr<struct<"struct._IO_marker">>, ptr<struct<"struct._IO_FILE">>, i32, i32, i64, i16, i8, array<1 x i8>, ptr<i8>, i64, ptr<i8>, ptr<i8>, ptr<i8>, ptr<i8>, i64, i32, array<20 x i8>)>>, i32, array<4 x i8>)>>, ptr<struct<"struct._IO_FILE", (i32, ptr<i8>, ptr<i8>, ptr<i8>, ptr<i8>, ptr<i8>, ptr<i8>, ptr<i8>, ptr<i8>, ptr<i8>, ptr<i8>, ptr<i8>, ptr<struct<"struct._IO_marker", (ptr<struct<"struct._IO_marker">>, ptr<struct<"struct._IO_FILE">>, i32, array<4 x i8>)>>, ptr<struct<"struct._IO_FILE">>, i32, i32, i64, i16, i8, array<1 x i8>, ptr<i8>, i64, ptr<i8>, ptr<i8>, ptr<i8>, ptr<i8>, i64, i32, array<20 x i8>)>>, i32, i32, i64, i16, i8, array<1 x i8>, ptr<i8>, i64, ptr<i8>, ptr<i8>, ptr<i8>, ptr<i8>, i64, i32, array<20 x i8>)>>
  llvm.func @fopen(!llvm.ptr<i8>, !llvm.ptr<i8>) -> !llvm.ptr<struct<(i32, ptr<i8>, ptr<i8>, ptr<i8>, ptr<i8>, ptr<i8>, ptr<i8>, ptr<i8>, ptr<i8>, ptr<i8>, ptr<i8>, ptr<i8>, ptr<struct<"struct._IO_marker", (ptr<struct<"struct._IO_marker">>, ptr<struct<"struct._IO_FILE", (i32, ptr<i8>, ptr<i8>, ptr<i8>, ptr<i8>, ptr<i8>, ptr<i8>, ptr<i8>, ptr<i8>, ptr<i8>, ptr<i8>, ptr<i8>, ptr<struct<"struct._IO_marker">>, ptr<struct<"struct._IO_FILE">>, i32, i32, i64, i16, i8, array<1 x i8>, ptr<i8>, i64, ptr<i8>, ptr<i8>, ptr<i8>, ptr<i8>, i64, i32, array<20 x i8>)>>, i32, array<4 x i8>)>>, ptr<struct<"struct._IO_FILE", (i32, ptr<i8>, ptr<i8>, ptr<i8>, ptr<i8>, ptr<i8>, ptr<i8>, ptr<i8>, ptr<i8>, ptr<i8>, ptr<i8>, ptr<i8>, ptr<struct<"struct._IO_marker", (ptr<struct<"struct._IO_marker">>, ptr<struct<"struct._IO_FILE">>, i32, array<4 x i8>)>>, ptr<struct<"struct._IO_FILE">>, i32, i32, i64, i16, i8, array<1 x i8>, ptr<i8>, i64, ptr<i8>, ptr<i8>, ptr<i8>, ptr<i8>, i64, i32, array<20 x i8>)>>, i32, i32, i64, i16, i8, array<1 x i8>, ptr<i8>, i64, ptr<i8>, ptr<i8>, ptr<i8>, ptr<i8>, i64, i32, array<20 x i8>)>>
  llvm.mlir.global internal constant @str6("a\00")
  llvm.mlir.global external @stdout() : !llvm.ptr<struct<(i32, ptr<i8>, ptr<i8>, ptr<i8>, ptr<i8>, ptr<i8>, ptr<i8>, ptr<i8>, ptr<i8>, ptr<i8>, ptr<i8>, ptr<i8>, ptr<struct<"struct._IO_marker", (ptr<struct<"struct._IO_marker">>, ptr<struct<"struct._IO_FILE", (i32, ptr<i8>, ptr<i8>, ptr<i8>, ptr<i8>, ptr<i8>, ptr<i8>, ptr<i8>, ptr<i8>, ptr<i8>, ptr<i8>, ptr<i8>, ptr<struct<"struct._IO_marker">>, ptr<struct<"struct._IO_FILE">>, i32, i32, i64, i16, i8, array<1 x i8>, ptr<i8>, i64, ptr<i8>, ptr<i8>, ptr<i8>, ptr<i8>, i64, i32, array<20 x i8>)>>, i32, array<4 x i8>)>>, ptr<struct<"struct._IO_FILE", (i32, ptr<i8>, ptr<i8>, ptr<i8>, ptr<i8>, ptr<i8>, ptr<i8>, ptr<i8>, ptr<i8>, ptr<i8>, ptr<i8>, ptr<i8>, ptr<struct<"struct._IO_marker", (ptr<struct<"struct._IO_marker">>, ptr<struct<"struct._IO_FILE">>, i32, array<4 x i8>)>>, ptr<struct<"struct._IO_FILE">>, i32, i32, i64, i16, i8, array<1 x i8>, ptr<i8>, i64, ptr<i8>, ptr<i8>, ptr<i8>, ptr<i8>, i64, i32, array<20 x i8>)>>, i32, i32, i64, i16, i8, array<1 x i8>, ptr<i8>, i64, ptr<i8>, ptr<i8>, ptr<i8>, ptr<i8>, i64, i32, array<20 x i8>)>>
  llvm.mlir.global internal constant @str5("-\00")
  llvm.func @strcmp(!llvm.ptr<i8>, !llvm.ptr<i8>) -> i32
  llvm.mlir.global internal constant @str4("\00")
  llvm.func @getenv(!llvm.ptr<i8>) -> !llvm.ptr<i8>
  llvm.mlir.global internal constant @str3("MY_TIMING_FILE\00")
  llvm.mlir.global internal constant @str2("FDWT 9/7 kernel\00")
  llvm.mlir.global internal constant @str1("fdwt97Kernel\00")
  llvm.mlir.global internal constant @str0("dwt2d\00")
  func @_ZN8dwt_cuda6fdwt97EPfS0_iii(%arg0: memref<?xf32>, %arg1: memref<?xf32>, %arg2: i32, %arg3: i32, %arg4: i32) attributes {llvm.linkage = #llvm.linkage<external>} {
    %c0_i32 = arith.constant 0 : i32
    %c960_i32 = arith.constant 960 : i32
    %c480_i32 = arith.constant 480 : i32
    %c1_i32 = arith.constant 1 : i32
    %c2_i32 = arith.constant 2 : i32
    %c-1_i32 = arith.constant -1 : i32
    %0 = arith.cmpi uge, %arg2, %c960_i32 : i32
    scf.if %0 {
      call @_ZN8dwt_cuda18launchFDWT97KernelILi192ELi8EEEvPfS1_ii(%arg0, %arg1, %arg2, %arg3) : (memref<?xf32>, memref<?xf32>, i32, i32) -> ()
    } else {
      %2 = arith.cmpi uge, %arg2, %c480_i32 : i32
      scf.if %2 {
        call @_ZN8dwt_cuda18launchFDWT97KernelILi128ELi6EEEvPfS1_ii(%arg0, %arg1, %arg2, %arg3) : (memref<?xf32>, memref<?xf32>, i32, i32) -> ()
      } else {
        call @_ZN8dwt_cuda18launchFDWT97KernelILi64ELi6EEEvPfS1_ii(%arg0, %arg1, %arg2, %arg3) : (memref<?xf32>, memref<?xf32>, i32, i32) -> ()
      }
    }
    %1 = arith.cmpi ugt, %arg4, %c1_i32 : i32
    scf.if %1 {
      %2 = arith.divsi %arg2, %c2_i32 : i32
      %3 = arith.remsi %arg2, %c2_i32 : i32
      %4 = arith.trunci %3 : i32 to i8
      %5 = arith.trunci %4 : i8 to i1
      %6 = select %5, %c1_i32, %c0_i32 : i32
      %7 = arith.addi %2, %6 : i32
      %8 = arith.divsi %arg3, %c2_i32 : i32
      %9 = arith.remsi %arg3, %c2_i32 : i32
      %10 = arith.trunci %9 : i32 to i8
      %11 = arith.trunci %10 : i8 to i1
      %12 = select %11, %c1_i32, %c0_i32 : i32
      %13 = arith.addi %8, %12 : i32
      %14 = arith.extsi %7 : i32 to i64
      %15 = arith.extsi %13 : i32 to i64
      call @_ZN8dwt_cuda7memCopyIfEEvPT_PKS1_mm(%arg0, %arg1, %14, %15) : (memref<?xf32>, memref<?xf32>, i64, i64) -> ()
      %16 = arith.addi %arg4, %c-1_i32 : i32
      call @_ZN8dwt_cuda6fdwt97EPfS0_iii(%arg0, %arg1, %7, %13, %16) : (memref<?xf32>, memref<?xf32>, i32, i32, i32) -> ()
    }
    return
  }
  func @_ZN8dwt_cuda18launchFDWT97KernelILi192ELi8EEEvPfS1_ii(%arg0: memref<?xf32>, %arg1: memref<?xf32>, %arg2: i32, %arg3: i32) attributes {llvm.linkage = #llvm.linkage<linkonce_odr>} {
    %c2_i32 = arith.constant 2 : i32
    %c3_i32 = arith.constant 3 : i32
    %c6 = arith.constant 6 : index
    %c7 = arith.constant 7 : index
    %c4 = arith.constant 4 : index
    %c32_i32 = arith.constant 32 : i32
    %c1512_i32 = arith.constant 1512 : i32
    %c31_i32 = arith.constant 31 : i32
    %c15 = arith.constant 15 : index
    %c7_i32 = arith.constant 7 : i32
    %c96_i32 = arith.constant 96 : i32
    %c191_i32 = arith.constant 191 : i32
    %c3 = arith.constant 3 : index
    %c124_i32 = arith.constant 124 : i32
    %c123_i32 = arith.constant 123 : i32
    %c-2_i32 = arith.constant -2 : i32
    %c4_i32 = arith.constant 4 : i32
    %c-4_i32 = arith.constant -4 : i32
    %c1_i64 = arith.constant 1 : i64
    %c-7_i32 = arith.constant -7 : i32
    %c12 = arith.constant 12 : index
    %c0 = arith.constant 0 : index
    %c1 = arith.constant 1 : index
    %c2 = arith.constant 2 : index
    %c1_i32 = arith.constant 1 : i32
    %c0_i32 = arith.constant 0 : i32
    %c120_i32 = arith.constant 120 : i32
    %c192_i32 = arith.constant 192 : i32
    %c8_i32 = arith.constant 8 : i32
    %cst = arith.constant 1.000000e-09 : f64
    %c192 = arith.constant 192 : index
    %c400_i64 = arith.constant 400 : i64
    %c300_i64 = arith.constant 300 : i64
    %c500_i64 = arith.constant 500 : i64
    %c200_i64 = arith.constant 200 : i64
    %c600_i64 = arith.constant 600 : i64
    %c100_i64 = arith.constant 100 : i64
    %c192_i64 = arith.constant 192 : i64
    %c1512_i64 = arith.constant 1512 : i64
    %c576_i64 = arith.constant 576 : i64
    %c577_i64 = arith.constant 577 : i64
    %c2088_i64 = arith.constant 2088 : i64
    %c1513_i64 = arith.constant 1513 : i64
    %c2089_i64 = arith.constant 2089 : i64
    %c700_i64 = arith.constant 700 : i64
    %c701_i64 = arith.constant 701 : i64
    %c2212_i64 = arith.constant 2212 : i64
    %c1468_i64 = arith.constant 1468 : i64
    %c1469_i64 = arith.constant 1469 : i64
    %c2980_i64 = arith.constant 2980 : i64
    %c2213_i64 = arith.constant 2213 : i64
    %c2981_i64 = arith.constant 2981 : i64
    %c8_i64 = arith.constant 8 : i64
    %c2_i64 = arith.constant 2 : i64
    %c3_i64 = arith.constant 3 : i64
    %0 = memref.alloca() : memref<1x2xi64>
    %1 = memref.alloca() : memref<1x2xi64>
    %2 = arith.divsi %arg3, %c120_i32 : i32
    %3 = arith.index_cast %2 : i32 to index
    %4 = arith.remsi %arg3, %c120_i32 : i32
    %5 = arith.trunci %4 : i32 to i8
    %6 = arith.trunci %5 : i8 to i1
    %7 = select %6, %c1_i32, %c0_i32 : i32
    %8 = arith.index_cast %7 : i32 to index
    %9 = arith.addi %2, %7 : i32
    %10 = arith.divsi %arg2, %c192_i32 : i32
    %11 = arith.index_cast %10 : i32 to index
    %12 = arith.remsi %arg2, %c192_i32 : i32
    %13 = arith.trunci %12 : i32 to i8
    %14 = arith.trunci %13 : i8 to i1
    %15 = select %14, %c1_i32, %c0_i32 : i32
    %16 = arith.index_cast %15 : i32 to index
    %17 = arith.muli %9, %c8_i32 : i32
    %18 = arith.divsi %arg3, %17 : i32
    %19 = arith.index_cast %18 : i32 to index
    %20 = arith.remsi %arg3, %17 : i32
    %21 = arith.trunci %20 : i32 to i8
    %22 = arith.trunci %21 : i8 to i1
    %23 = select %22, %c1_i32, %c0_i32 : i32
    %24 = arith.index_cast %23 : i32 to index
    %25 = call @cudaDeviceSynchronize() : () -> i32
    %26 = memref.cast %1 : memref<1x2xi64> to memref<?x2xi64>
    %27 = call @clock_gettime(%c1_i32, %26) : (i32, memref<?x2xi64>) -> i32
    %28 = arith.addi %11, %16 : index
    %29 = arith.addi %19, %24 : index
    scf.parallel (%arg4, %arg5) = (%c0, %c0) to (%28, %29) step (%c1, %c1) {
      %50 = arith.index_cast %arg4 : index to i32
      %51 = arith.index_cast %arg5 : index to i32
      %52 = llvm.alloca %c1_i64 x !llvm.struct<(struct<(array<3012 x f32>)>)> : (i64) -> !llvm.ptr<struct<(struct<(array<3012 x f32>)>)>>
      %53 = llvm.addrspacecast %52 : !llvm.ptr<struct<(struct<(array<3012 x f32>)>)>> to !llvm.ptr<struct<(struct<(array<3012 x f32>)>)>, 5>
      %54 = memref.alloc() : memref<192xindex>
      %55 = memref.alloc() : memref<192xi1>
      %56 = memref.alloc() : memref<192xi64>
      %57 = memref.alloc() : memref<192xi32>
      scf.parallel (%arg6) = (%c0) to (%c192) step (%c1) {
        %61 = arith.index_cast %arg6 : index to i32
        memref.store %61, %57[%arg6] : memref<192xi32>
        %62 = arith.index_cast %arg6 : index to i64
        memref.store %62, %56[%arg6] : memref<192xi64>
        %63 = arith.addi %50, %c1_i32 : i32
        %64 = arith.muli %63, %c192_i32 : i32
        %65 = arith.addi %64, %c3_i32 : i32
        %66 = arith.addi %51, %c1_i32 : i32
        %67 = arith.muli %66, %c8_i32 : i32
        %68 = arith.muli %67, %9 : i32
        %69 = arith.addi %68, %c3_i32 : i32
        %70 = arith.cmpi uge, %65, %arg2 : i32
        memref.store %70, %55[%arg6] : memref<192xi1>
        %71 = arith.cmpi uge, %69, %arg3 : i32
        %72 = arith.extui %71 : i1 to i64
        %73 = arith.index_cast %72 : i64 to index
        memref.store %73, %54[%arg6] : memref<192xindex>
        scf.yield
      }
      %58 = memref.load %54[%c0] : memref<192xindex>
      scf.for %arg6 = %c0 to %58 step %c1 {
        %61 = memref.alloc() : memref<192xi1>
        %62 = memref.alloc() : memref<192x!llvm.ptr<i32>>
        %63 = memref.alloc() : memref<192x!llvm.ptr<i32>>
        %64 = memref.alloc() : memref<192x!llvm.ptr<i32>>
        %65 = memref.alloc() : memref<192x!llvm.ptr<i32>>
        %66 = memref.alloc() : memref<192xi32>
        %67 = memref.alloc() : memref<192x!llvm.ptr<struct<(array<3012 x f32>)>>>
        %68 = memref.alloc() : memref<192x!llvm.ptr<i32>>
        %69 = memref.alloc() : memref<192xi32>
        %70 = memref.alloc() : memref<192x!llvm.ptr<struct<(struct<(struct<(i32, i32)>, i32)>, i32)>>>
        %71 = memref.alloc() : memref<192x!llvm.ptr<struct<(struct<(i32, i32, i32)>, i32)>>>
        %72 = memref.alloc() : memref<192x7xf32>
        scf.parallel (%arg7) = (%c0) to (%c192) step (%c1) {
          %83 = llvm.addrspacecast %53 : !llvm.ptr<struct<(struct<(array<3012 x f32>)>)>, 5> to !llvm.ptr<struct<(struct<(array<3012 x f32>)>)>>
          %84 = llvm.alloca %c1_i64 x !llvm.struct<(struct<(i32, i32, i32)>, i32)> : (i64) -> !llvm.ptr<struct<(struct<(i32, i32, i32)>, i32)>>
          memref.store %84, %71[%arg7] : memref<192x!llvm.ptr<struct<(struct<(i32, i32, i32)>, i32)>>>
          %85 = llvm.alloca %c1_i64 x !llvm.struct<(struct<(struct<(i32, i32)>, i32)>, i32)> : (i64) -> !llvm.ptr<struct<(struct<(struct<(i32, i32)>, i32)>, i32)>>
          %86 = llvm.alloca %c1_i64 x !llvm.struct<(struct<(struct<(i32, i32)>, i32)>, i32)> : (i64) -> !llvm.ptr<struct<(struct<(struct<(i32, i32)>, i32)>, i32)>>
          memref.store %86, %70[%arg7] : memref<192x!llvm.ptr<struct<(struct<(struct<(i32, i32)>, i32)>, i32)>>>
          %87 = arith.muli %51, %c8_i32 : i32
          %88 = arith.muli %87, %9 : i32
          memref.store %88, %69[%arg7] : memref<192xi32>
          %89 = llvm.getelementptr %86[%c0_i32, %c1_i32] : (!llvm.ptr<struct<(struct<(struct<(i32, i32)>, i32)>, i32)>>, i32, i32) -> !llvm.ptr<i32>
          memref.store %89, %68[%arg7] : memref<192x!llvm.ptr<i32>>
          %90 = llvm.getelementptr %83[%c0_i32, %c0_i32] : (!llvm.ptr<struct<(struct<(array<3012 x f32>)>)>>, i32, i32) -> !llvm.ptr<struct<(array<3012 x f32>)>>
          memref.store %90, %67[%arg7] : memref<192x!llvm.ptr<struct<(array<3012 x f32>)>>>
          %91 = memref.load %57[%arg7] : memref<192xi32>
          %92 = arith.addi %91, %c4_i32 : i32
          %93 = arith.divsi %92, %c2_i32 : i32
          %94 = arith.andi %92, %c1_i32 : i32
          %95 = arith.muli %94, %c1512_i32 : i32
          %96 = arith.addi %93, %95 : i32
          llvm.store %96, %89 : !llvm.ptr<i32>
          %97 = arith.muli %50, %c192_i32 : i32
          memref.store %97, %66[%arg7] : memref<192xi32>
          %98 = memref.load %57[%arg7] : memref<192xi32>
          %99 = arith.addi %97, %98 : i32
          %100 = arith.cmpi eq, %51, %c0_i32 : i32
          scf.if %100 {
            %109 = llvm.getelementptr %86[%c0_i32, %c0_i32] : (!llvm.ptr<struct<(struct<(struct<(i32, i32)>, i32)>, i32)>>, i32, i32) -> !llvm.ptr<struct<(struct<(i32, i32)>, i32)>>
            %110 = arith.cmpi uge, %99, %arg2 : i32
            %111 = scf.if %110 -> (i32) {
              %217 = arith.muli %arg2, %c2_i32 : i32
              %218 = arith.addi %217, %c-2_i32 : i32
              %219 = arith.subi %218, %99 : i32
              scf.yield %219 : i32
            } else {
              %217 = arith.cmpi ult, %99, %c0_i32 : i32
              %218 = scf.if %217 -> (i32) {
                %219 = arith.subi %c0_i32, %99 : i32
                scf.yield %219 : i32
              } else {
                scf.yield %99 : i32
              }
              scf.yield %218 : i32
            }
            %112 = llvm.getelementptr %109[%c0_i32, %c1_i32] : (!llvm.ptr<struct<(struct<(i32, i32)>, i32)>>, i32, i32) -> !llvm.ptr<i32>
            %113 = llvm.bitcast %109 : !llvm.ptr<struct<(struct<(i32, i32)>, i32)>> to !llvm.ptr<struct<(i32, i32)>>
            %114 = llvm.getelementptr %113[%c0_i32, %c0_i32] : (!llvm.ptr<struct<(i32, i32)>>, i32, i32) -> !llvm.ptr<i32>
            %115 = arith.muli %arg3, %arg2 : i32
            %116 = arith.addi %115, %111 : i32
            llvm.store %116, %114 : !llvm.ptr<i32>
            %117 = llvm.getelementptr %113[%c0_i32, %c1_i32] : (!llvm.ptr<struct<(i32, i32)>>, i32, i32) -> !llvm.ptr<i32>
            llvm.store %arg2, %117 : !llvm.ptr<i32>
            %118 = arith.muli %arg2, %88 : i32
            %119 = arith.addi %111, %118 : i32
            %120 = arith.subi %119, %arg2 : i32
            llvm.store %120, %112 : !llvm.ptr<i32>
            %121 = llvm.load %89 : !llvm.ptr<i32>
            %122 = arith.index_cast %121 : i32 to index
            %123 = arith.index_cast %122 : index to i64
            %124 = llvm.getelementptr %90[%c0_i32, %c0_i32] : (!llvm.ptr<struct<(array<3012 x f32>)>>, i32, i32) -> !llvm.ptr<array<3012 x f32>>
            %125 = llvm.getelementptr %124[%c0_i32, %c0_i32] : (!llvm.ptr<array<3012 x f32>>, i32, i32) -> !llvm.ptr<f32>
            %126 = arith.addi %123, %c400_i64 : i64
            %127 = llvm.getelementptr %125[%126] : (!llvm.ptr<f32>, i64) -> !llvm.ptr<f32>
            %128 = llvm.load %117 : !llvm.ptr<i32>
            %129 = llvm.load %112 : !llvm.ptr<i32>
            %130 = arith.addi %129, %128 : i32
            llvm.store %130, %112 : !llvm.ptr<i32>
            %131 = llvm.load %112 : !llvm.ptr<i32>
            %132 = llvm.load %114 : !llvm.ptr<i32>
            %133 = arith.cmpi eq, %131, %132 : i32
            scf.if %133 {
              %217 = llvm.load %117 : !llvm.ptr<i32>
              %218 = arith.muli %217, %c2_i32 : i32
              %219 = llvm.load %112 : !llvm.ptr<i32>
              %220 = arith.subi %219, %218 : i32
              llvm.store %220, %112 : !llvm.ptr<i32>
              %221 = llvm.load %117 : !llvm.ptr<i32>
              %222 = arith.subi %c0_i32, %221 : i32
              llvm.store %222, %117 : !llvm.ptr<i32>
            }
            %134 = llvm.load %112 : !llvm.ptr<i32>
            %135 = arith.index_cast %134 : i32 to index
            %136 = memref.load %arg0[%135] : memref<?xf32>
            %137 = llvm.getelementptr %127[%c0_i32] : (!llvm.ptr<f32>, i32) -> !llvm.ptr<f32>
            llvm.store %136, %137 : !llvm.ptr<f32>
            %138 = llvm.load %89 : !llvm.ptr<i32>
            %139 = arith.index_cast %138 : i32 to index
            %140 = arith.index_cast %139 : index to i64
            %141 = arith.addi %140, %c300_i64 : i64
            %142 = llvm.getelementptr %125[%141] : (!llvm.ptr<f32>, i64) -> !llvm.ptr<f32>
            %143 = llvm.load %89 : !llvm.ptr<i32>
            %144 = arith.index_cast %143 : i32 to index
            %145 = arith.index_cast %144 : index to i64
            %146 = arith.addi %145, %c500_i64 : i64
            %147 = llvm.getelementptr %125[%146] : (!llvm.ptr<f32>, i64) -> !llvm.ptr<f32>
            %148 = llvm.load %117 : !llvm.ptr<i32>
            %149 = llvm.load %112 : !llvm.ptr<i32>
            %150 = arith.addi %149, %148 : i32
            llvm.store %150, %112 : !llvm.ptr<i32>
            %151 = llvm.load %112 : !llvm.ptr<i32>
            %152 = llvm.load %114 : !llvm.ptr<i32>
            %153 = arith.cmpi eq, %151, %152 : i32
            scf.if %153 {
              %217 = llvm.load %117 : !llvm.ptr<i32>
              %218 = arith.muli %217, %c2_i32 : i32
              %219 = llvm.load %112 : !llvm.ptr<i32>
              %220 = arith.subi %219, %218 : i32
              llvm.store %220, %112 : !llvm.ptr<i32>
              %221 = llvm.load %117 : !llvm.ptr<i32>
              %222 = arith.subi %c0_i32, %221 : i32
              llvm.store %222, %117 : !llvm.ptr<i32>
            }
            %154 = llvm.load %112 : !llvm.ptr<i32>
            %155 = arith.index_cast %154 : i32 to index
            %156 = memref.load %arg0[%155] : memref<?xf32>
            %157 = llvm.getelementptr %147[%c0_i32] : (!llvm.ptr<f32>, i32) -> !llvm.ptr<f32>
            llvm.store %156, %157 : !llvm.ptr<f32>
            %158 = llvm.load %157 : !llvm.ptr<f32>
            %159 = llvm.getelementptr %142[%c0_i32] : (!llvm.ptr<f32>, i32) -> !llvm.ptr<f32>
            llvm.store %158, %159 : !llvm.ptr<f32>
            %160 = llvm.load %89 : !llvm.ptr<i32>
            %161 = arith.index_cast %160 : i32 to index
            %162 = arith.index_cast %161 : index to i64
            %163 = arith.addi %162, %c200_i64 : i64
            %164 = llvm.getelementptr %125[%163] : (!llvm.ptr<f32>, i64) -> !llvm.ptr<f32>
            %165 = llvm.load %89 : !llvm.ptr<i32>
            %166 = arith.index_cast %165 : i32 to index
            %167 = arith.index_cast %166 : index to i64
            %168 = arith.addi %167, %c600_i64 : i64
            %169 = llvm.getelementptr %125[%168] : (!llvm.ptr<f32>, i64) -> !llvm.ptr<f32>
            %170 = llvm.load %117 : !llvm.ptr<i32>
            %171 = llvm.load %112 : !llvm.ptr<i32>
            %172 = arith.addi %171, %170 : i32
            llvm.store %172, %112 : !llvm.ptr<i32>
            %173 = llvm.load %112 : !llvm.ptr<i32>
            %174 = llvm.load %114 : !llvm.ptr<i32>
            %175 = arith.cmpi eq, %173, %174 : i32
            scf.if %175 {
              %217 = llvm.load %117 : !llvm.ptr<i32>
              %218 = arith.muli %217, %c2_i32 : i32
              %219 = llvm.load %112 : !llvm.ptr<i32>
              %220 = arith.subi %219, %218 : i32
              llvm.store %220, %112 : !llvm.ptr<i32>
              %221 = llvm.load %117 : !llvm.ptr<i32>
              %222 = arith.subi %c0_i32, %221 : i32
              llvm.store %222, %117 : !llvm.ptr<i32>
            }
            %176 = llvm.load %112 : !llvm.ptr<i32>
            %177 = arith.index_cast %176 : i32 to index
            %178 = memref.load %arg0[%177] : memref<?xf32>
            %179 = llvm.getelementptr %169[%c0_i32] : (!llvm.ptr<f32>, i32) -> !llvm.ptr<f32>
            llvm.store %178, %179 : !llvm.ptr<f32>
            %180 = llvm.load %179 : !llvm.ptr<f32>
            %181 = llvm.getelementptr %164[%c0_i32] : (!llvm.ptr<f32>, i32) -> !llvm.ptr<f32>
            llvm.store %180, %181 : !llvm.ptr<f32>
            %182 = llvm.load %89 : !llvm.ptr<i32>
            %183 = arith.index_cast %182 : i32 to index
            %184 = arith.index_cast %183 : index to i64
            %185 = arith.addi %184, %c100_i64 : i64
            %186 = llvm.getelementptr %125[%185] : (!llvm.ptr<f32>, i64) -> !llvm.ptr<f32>
            %187 = llvm.load %117 : !llvm.ptr<i32>
            %188 = llvm.load %112 : !llvm.ptr<i32>
            %189 = arith.addi %188, %187 : i32
            llvm.store %189, %112 : !llvm.ptr<i32>
            %190 = llvm.load %112 : !llvm.ptr<i32>
            %191 = llvm.load %114 : !llvm.ptr<i32>
            %192 = arith.cmpi eq, %190, %191 : i32
            scf.if %192 {
              %217 = llvm.load %117 : !llvm.ptr<i32>
              %218 = arith.muli %217, %c2_i32 : i32
              %219 = llvm.load %112 : !llvm.ptr<i32>
              %220 = arith.subi %219, %218 : i32
              llvm.store %220, %112 : !llvm.ptr<i32>
              %221 = llvm.load %117 : !llvm.ptr<i32>
              %222 = arith.subi %c0_i32, %221 : i32
              llvm.store %222, %117 : !llvm.ptr<i32>
            }
            %193 = llvm.load %112 : !llvm.ptr<i32>
            %194 = arith.index_cast %193 : i32 to index
            %195 = memref.load %arg0[%194] : memref<?xf32>
            %196 = llvm.getelementptr %186[%c0_i32] : (!llvm.ptr<f32>, i32) -> !llvm.ptr<f32>
            llvm.store %195, %196 : !llvm.ptr<f32>
            %197 = llvm.load %89 : !llvm.ptr<i32>
            %198 = arith.index_cast %197 : i32 to index
            %199 = arith.index_cast %198 : index to i64
            %200 = llvm.getelementptr %125[%199] : (!llvm.ptr<f32>, i64) -> !llvm.ptr<f32>
            %201 = llvm.load %117 : !llvm.ptr<i32>
            %202 = llvm.load %112 : !llvm.ptr<i32>
            %203 = arith.addi %202, %201 : i32
            llvm.store %203, %112 : !llvm.ptr<i32>
            %204 = llvm.load %112 : !llvm.ptr<i32>
            %205 = llvm.load %114 : !llvm.ptr<i32>
            %206 = arith.cmpi eq, %204, %205 : i32
            scf.if %206 {
              %217 = llvm.load %117 : !llvm.ptr<i32>
              %218 = arith.muli %217, %c2_i32 : i32
              %219 = llvm.load %112 : !llvm.ptr<i32>
              %220 = arith.subi %219, %218 : i32
              llvm.store %220, %112 : !llvm.ptr<i32>
              %221 = llvm.load %117 : !llvm.ptr<i32>
              %222 = arith.subi %c0_i32, %221 : i32
              llvm.store %222, %117 : !llvm.ptr<i32>
            }
            %207 = llvm.load %112 : !llvm.ptr<i32>
            %208 = arith.index_cast %207 : i32 to index
            %209 = memref.load %arg0[%208] : memref<?xf32>
            %210 = llvm.getelementptr %200[%c0_i32] : (!llvm.ptr<f32>, i32) -> !llvm.ptr<f32>
            llvm.store %209, %210 : !llvm.ptr<f32>
            %211 = arith.addi %88, %c3_i32 : i32
            %212 = scf.if %110 -> (i32) {
              %217 = arith.muli %arg2, %c2_i32 : i32
              %218 = arith.addi %217, %c-2_i32 : i32
              %219 = arith.subi %218, %99 : i32
              scf.yield %219 : i32
            } else {
              %217 = arith.cmpi ult, %99, %c0_i32 : i32
              %218 = scf.if %217 -> (i32) {
                %219 = arith.subi %c0_i32, %99 : i32
                scf.yield %219 : i32
              } else {
                scf.yield %99 : i32
              }
              scf.yield %218 : i32
            }
            %213 = arith.addi %115, %212 : i32
            llvm.store %213, %114 : !llvm.ptr<i32>
            llvm.store %arg2, %117 : !llvm.ptr<i32>
            %214 = arith.muli %arg2, %211 : i32
            %215 = arith.addi %212, %214 : i32
            %216 = arith.subi %215, %arg2 : i32
            llvm.store %216, %112 : !llvm.ptr<i32>
          } else {
            %109 = llvm.getelementptr %86[%c0_i32, %c0_i32] : (!llvm.ptr<struct<(struct<(struct<(i32, i32)>, i32)>, i32)>>, i32, i32) -> !llvm.ptr<struct<(struct<(i32, i32)>, i32)>>
            %110 = arith.addi %88, %c-4_i32 : i32
            %111 = arith.cmpi uge, %99, %arg2 : i32
            %112 = scf.if %111 -> (i32) {
              %122 = arith.muli %arg2, %c2_i32 : i32
              %123 = arith.addi %122, %c-2_i32 : i32
              %124 = arith.subi %123, %99 : i32
              scf.yield %124 : i32
            } else {
              %122 = arith.cmpi ult, %99, %c0_i32 : i32
              %123 = scf.if %122 -> (i32) {
                %124 = arith.subi %c0_i32, %99 : i32
                scf.yield %124 : i32
              } else {
                scf.yield %99 : i32
              }
              scf.yield %123 : i32
            }
            %113 = llvm.getelementptr %109[%c0_i32, %c1_i32] : (!llvm.ptr<struct<(struct<(i32, i32)>, i32)>>, i32, i32) -> !llvm.ptr<i32>
            %114 = llvm.bitcast %109 : !llvm.ptr<struct<(struct<(i32, i32)>, i32)>> to !llvm.ptr<struct<(i32, i32)>>
            %115 = llvm.getelementptr %114[%c0_i32, %c0_i32] : (!llvm.ptr<struct<(i32, i32)>>, i32, i32) -> !llvm.ptr<i32>
            %116 = arith.muli %arg3, %arg2 : i32
            %117 = arith.addi %116, %112 : i32
            llvm.store %117, %115 : !llvm.ptr<i32>
            %118 = llvm.getelementptr %114[%c0_i32, %c1_i32] : (!llvm.ptr<struct<(i32, i32)>>, i32, i32) -> !llvm.ptr<i32>
            llvm.store %arg2, %118 : !llvm.ptr<i32>
            %119 = arith.muli %arg2, %110 : i32
            %120 = arith.addi %112, %119 : i32
            %121 = arith.subi %120, %arg2 : i32
            llvm.store %121, %113 : !llvm.ptr<i32>
            scf.for %arg8 = %c0 to %c7 step %c1 {
              %122 = arith.index_cast %arg8 : index to i64
              %123 = llvm.load %89 : !llvm.ptr<i32>
              %124 = arith.index_cast %123 : i32 to index
              %125 = arith.index_cast %124 : index to i64
              %126 = arith.muli %122, %c100_i64 : i64
              %127 = llvm.getelementptr %90[%c0_i32, %c0_i32] : (!llvm.ptr<struct<(array<3012 x f32>)>>, i32, i32) -> !llvm.ptr<array<3012 x f32>>
              %128 = llvm.getelementptr %127[%c0_i32, %c0_i32] : (!llvm.ptr<array<3012 x f32>>, i32, i32) -> !llvm.ptr<f32>
              %129 = arith.addi %125, %126 : i64
              %130 = llvm.getelementptr %128[%129] : (!llvm.ptr<f32>, i64) -> !llvm.ptr<f32>
              %131 = llvm.load %118 : !llvm.ptr<i32>
              %132 = llvm.load %113 : !llvm.ptr<i32>
              %133 = arith.addi %132, %131 : i32
              llvm.store %133, %113 : !llvm.ptr<i32>
              %134 = llvm.load %113 : !llvm.ptr<i32>
              %135 = llvm.load %115 : !llvm.ptr<i32>
              %136 = arith.cmpi eq, %134, %135 : i32
              scf.if %136 {
                %141 = llvm.load %118 : !llvm.ptr<i32>
                %142 = arith.muli %141, %c2_i32 : i32
                %143 = llvm.load %113 : !llvm.ptr<i32>
                %144 = arith.subi %143, %142 : i32
                llvm.store %144, %113 : !llvm.ptr<i32>
                %145 = llvm.load %118 : !llvm.ptr<i32>
                %146 = arith.subi %c0_i32, %145 : i32
                llvm.store %146, %118 : !llvm.ptr<i32>
              }
              %137 = llvm.load %113 : !llvm.ptr<i32>
              %138 = arith.index_cast %137 : i32 to index
              %139 = memref.load %arg0[%138] : memref<?xf32>
              %140 = llvm.getelementptr %130[%c0_i32] : (!llvm.ptr<f32>, i32) -> !llvm.ptr<f32>
              llvm.store %139, %140 : !llvm.ptr<f32>
            }
          }
          %101 = llvm.getelementptr %85[%c0_i32, %c1_i32] : (!llvm.ptr<struct<(struct<(struct<(i32, i32)>, i32)>, i32)>>, i32, i32) -> !llvm.ptr<i32>
          memref.store %101, %65[%arg7] : memref<192x!llvm.ptr<i32>>
          llvm.store %c0_i32, %101 : !llvm.ptr<i32>
          %102 = llvm.getelementptr %85[%c0_i32, %c0_i32] : (!llvm.ptr<struct<(struct<(struct<(i32, i32)>, i32)>, i32)>>, i32, i32) -> !llvm.ptr<struct<(struct<(i32, i32)>, i32)>>
          %103 = llvm.bitcast %102 : !llvm.ptr<struct<(struct<(i32, i32)>, i32)>> to !llvm.ptr<struct<(i32, i32)>>
          %104 = llvm.getelementptr %103[%c0_i32, %c0_i32] : (!llvm.ptr<struct<(i32, i32)>>, i32, i32) -> !llvm.ptr<i32>
          memref.store %104, %64[%arg7] : memref<192x!llvm.ptr<i32>>
          llvm.store %c0_i32, %104 : !llvm.ptr<i32>
          %105 = llvm.getelementptr %103[%c0_i32, %c1_i32] : (!llvm.ptr<struct<(i32, i32)>>, i32, i32) -> !llvm.ptr<i32>
          memref.store %105, %63[%arg7] : memref<192x!llvm.ptr<i32>>
          llvm.store %c0_i32, %105 : !llvm.ptr<i32>
          %106 = llvm.getelementptr %102[%c0_i32, %c1_i32] : (!llvm.ptr<struct<(struct<(i32, i32)>, i32)>>, i32, i32) -> !llvm.ptr<i32>
          memref.store %106, %62[%arg7] : memref<192x!llvm.ptr<i32>>
          llvm.store %c0_i32, %106 : !llvm.ptr<i32>
          %107 = memref.load %57[%arg7] : memref<192xi32>
          %108 = arith.cmpi ult, %107, %c7_i32 : i32
          memref.store %108, %61[%arg7] : memref<192xi1>
          scf.if %108 {
            %109 = memref.load %57[%arg7] : memref<192xi32>
            %110 = arith.cmpi ult, %109, %c3_i32 : i32
            %111 = select %110, %c192_i32, %c-7_i32 : i32
            %112 = memref.load %57[%arg7] : memref<192xi32>
            %113 = arith.addi %112, %111 : i32
            %114 = arith.addi %113, %c4_i32 : i32
            %115 = arith.divsi %114, %c2_i32 : i32
            %116 = arith.andi %114, %c1_i32 : i32
            %117 = arith.muli %116, %c1512_i32 : i32
            %118 = arith.addi %115, %117 : i32
            llvm.store %118, %101 : !llvm.ptr<i32>
            %119 = arith.addi %97, %113 : i32
            scf.if %100 {
              %120 = arith.cmpi uge, %119, %arg2 : i32
              %121 = scf.if %120 -> (i32) {
                %223 = arith.muli %arg2, %c2_i32 : i32
                %224 = arith.addi %223, %c-2_i32 : i32
                %225 = arith.subi %224, %119 : i32
                scf.yield %225 : i32
              } else {
                %223 = arith.cmpi ult, %119, %c0_i32 : i32
                %224 = scf.if %223 -> (i32) {
                  %225 = arith.subi %c0_i32, %119 : i32
                  scf.yield %225 : i32
                } else {
                  scf.yield %119 : i32
                }
                scf.yield %224 : i32
              }
              %122 = arith.muli %arg3, %arg2 : i32
              %123 = arith.addi %122, %121 : i32
              llvm.store %123, %104 : !llvm.ptr<i32>
              llvm.store %arg2, %105 : !llvm.ptr<i32>
              %124 = arith.muli %arg2, %88 : i32
              %125 = arith.addi %121, %124 : i32
              %126 = arith.subi %125, %arg2 : i32
              llvm.store %126, %106 : !llvm.ptr<i32>
              %127 = llvm.load %101 : !llvm.ptr<i32>
              %128 = arith.index_cast %127 : i32 to index
              %129 = arith.index_cast %128 : index to i64
              %130 = llvm.getelementptr %90[%c0_i32, %c0_i32] : (!llvm.ptr<struct<(array<3012 x f32>)>>, i32, i32) -> !llvm.ptr<array<3012 x f32>>
              %131 = llvm.getelementptr %130[%c0_i32, %c0_i32] : (!llvm.ptr<array<3012 x f32>>, i32, i32) -> !llvm.ptr<f32>
              %132 = arith.addi %129, %c400_i64 : i64
              %133 = llvm.getelementptr %131[%132] : (!llvm.ptr<f32>, i64) -> !llvm.ptr<f32>
              %134 = llvm.load %105 : !llvm.ptr<i32>
              %135 = llvm.load %106 : !llvm.ptr<i32>
              %136 = arith.addi %135, %134 : i32
              llvm.store %136, %106 : !llvm.ptr<i32>
              %137 = llvm.load %106 : !llvm.ptr<i32>
              %138 = llvm.load %104 : !llvm.ptr<i32>
              %139 = arith.cmpi eq, %137, %138 : i32
              scf.if %139 {
                %223 = llvm.load %105 : !llvm.ptr<i32>
                %224 = arith.muli %223, %c2_i32 : i32
                %225 = llvm.load %106 : !llvm.ptr<i32>
                %226 = arith.subi %225, %224 : i32
                llvm.store %226, %106 : !llvm.ptr<i32>
                %227 = llvm.load %105 : !llvm.ptr<i32>
                %228 = arith.subi %c0_i32, %227 : i32
                llvm.store %228, %105 : !llvm.ptr<i32>
              }
              %140 = llvm.load %106 : !llvm.ptr<i32>
              %141 = arith.index_cast %140 : i32 to index
              %142 = memref.load %arg0[%141] : memref<?xf32>
              %143 = llvm.getelementptr %133[%c0_i32] : (!llvm.ptr<f32>, i32) -> !llvm.ptr<f32>
              llvm.store %142, %143 : !llvm.ptr<f32>
              %144 = llvm.load %101 : !llvm.ptr<i32>
              %145 = arith.index_cast %144 : i32 to index
              %146 = arith.index_cast %145 : index to i64
              %147 = arith.addi %146, %c300_i64 : i64
              %148 = llvm.getelementptr %131[%147] : (!llvm.ptr<f32>, i64) -> !llvm.ptr<f32>
              %149 = llvm.load %101 : !llvm.ptr<i32>
              %150 = arith.index_cast %149 : i32 to index
              %151 = arith.index_cast %150 : index to i64
              %152 = arith.addi %151, %c500_i64 : i64
              %153 = llvm.getelementptr %131[%152] : (!llvm.ptr<f32>, i64) -> !llvm.ptr<f32>
              %154 = llvm.load %105 : !llvm.ptr<i32>
              %155 = llvm.load %106 : !llvm.ptr<i32>
              %156 = arith.addi %155, %154 : i32
              llvm.store %156, %106 : !llvm.ptr<i32>
              %157 = llvm.load %106 : !llvm.ptr<i32>
              %158 = llvm.load %104 : !llvm.ptr<i32>
              %159 = arith.cmpi eq, %157, %158 : i32
              scf.if %159 {
                %223 = llvm.load %105 : !llvm.ptr<i32>
                %224 = arith.muli %223, %c2_i32 : i32
                %225 = llvm.load %106 : !llvm.ptr<i32>
                %226 = arith.subi %225, %224 : i32
                llvm.store %226, %106 : !llvm.ptr<i32>
                %227 = llvm.load %105 : !llvm.ptr<i32>
                %228 = arith.subi %c0_i32, %227 : i32
                llvm.store %228, %105 : !llvm.ptr<i32>
              }
              %160 = llvm.load %106 : !llvm.ptr<i32>
              %161 = arith.index_cast %160 : i32 to index
              %162 = memref.load %arg0[%161] : memref<?xf32>
              %163 = llvm.getelementptr %153[%c0_i32] : (!llvm.ptr<f32>, i32) -> !llvm.ptr<f32>
              llvm.store %162, %163 : !llvm.ptr<f32>
              %164 = llvm.load %163 : !llvm.ptr<f32>
              %165 = llvm.getelementptr %148[%c0_i32] : (!llvm.ptr<f32>, i32) -> !llvm.ptr<f32>
              llvm.store %164, %165 : !llvm.ptr<f32>
              %166 = llvm.load %101 : !llvm.ptr<i32>
              %167 = arith.index_cast %166 : i32 to index
              %168 = arith.index_cast %167 : index to i64
              %169 = arith.addi %168, %c200_i64 : i64
              %170 = llvm.getelementptr %131[%169] : (!llvm.ptr<f32>, i64) -> !llvm.ptr<f32>
              %171 = llvm.load %101 : !llvm.ptr<i32>
              %172 = arith.index_cast %171 : i32 to index
              %173 = arith.index_cast %172 : index to i64
              %174 = arith.addi %173, %c600_i64 : i64
              %175 = llvm.getelementptr %131[%174] : (!llvm.ptr<f32>, i64) -> !llvm.ptr<f32>
              %176 = llvm.load %105 : !llvm.ptr<i32>
              %177 = llvm.load %106 : !llvm.ptr<i32>
              %178 = arith.addi %177, %176 : i32
              llvm.store %178, %106 : !llvm.ptr<i32>
              %179 = llvm.load %106 : !llvm.ptr<i32>
              %180 = llvm.load %104 : !llvm.ptr<i32>
              %181 = arith.cmpi eq, %179, %180 : i32
              scf.if %181 {
                %223 = llvm.load %105 : !llvm.ptr<i32>
                %224 = arith.muli %223, %c2_i32 : i32
                %225 = llvm.load %106 : !llvm.ptr<i32>
                %226 = arith.subi %225, %224 : i32
                llvm.store %226, %106 : !llvm.ptr<i32>
                %227 = llvm.load %105 : !llvm.ptr<i32>
                %228 = arith.subi %c0_i32, %227 : i32
                llvm.store %228, %105 : !llvm.ptr<i32>
              }
              %182 = llvm.load %106 : !llvm.ptr<i32>
              %183 = arith.index_cast %182 : i32 to index
              %184 = memref.load %arg0[%183] : memref<?xf32>
              %185 = llvm.getelementptr %175[%c0_i32] : (!llvm.ptr<f32>, i32) -> !llvm.ptr<f32>
              llvm.store %184, %185 : !llvm.ptr<f32>
              %186 = llvm.load %185 : !llvm.ptr<f32>
              %187 = llvm.getelementptr %170[%c0_i32] : (!llvm.ptr<f32>, i32) -> !llvm.ptr<f32>
              llvm.store %186, %187 : !llvm.ptr<f32>
              %188 = llvm.load %101 : !llvm.ptr<i32>
              %189 = arith.index_cast %188 : i32 to index
              %190 = arith.index_cast %189 : index to i64
              %191 = arith.addi %190, %c100_i64 : i64
              %192 = llvm.getelementptr %131[%191] : (!llvm.ptr<f32>, i64) -> !llvm.ptr<f32>
              %193 = llvm.load %105 : !llvm.ptr<i32>
              %194 = llvm.load %106 : !llvm.ptr<i32>
              %195 = arith.addi %194, %193 : i32
              llvm.store %195, %106 : !llvm.ptr<i32>
              %196 = llvm.load %106 : !llvm.ptr<i32>
              %197 = llvm.load %104 : !llvm.ptr<i32>
              %198 = arith.cmpi eq, %196, %197 : i32
              scf.if %198 {
                %223 = llvm.load %105 : !llvm.ptr<i32>
                %224 = arith.muli %223, %c2_i32 : i32
                %225 = llvm.load %106 : !llvm.ptr<i32>
                %226 = arith.subi %225, %224 : i32
                llvm.store %226, %106 : !llvm.ptr<i32>
                %227 = llvm.load %105 : !llvm.ptr<i32>
                %228 = arith.subi %c0_i32, %227 : i32
                llvm.store %228, %105 : !llvm.ptr<i32>
              }
              %199 = llvm.load %106 : !llvm.ptr<i32>
              %200 = arith.index_cast %199 : i32 to index
              %201 = memref.load %arg0[%200] : memref<?xf32>
              %202 = llvm.getelementptr %192[%c0_i32] : (!llvm.ptr<f32>, i32) -> !llvm.ptr<f32>
              llvm.store %201, %202 : !llvm.ptr<f32>
              %203 = llvm.load %101 : !llvm.ptr<i32>
              %204 = arith.index_cast %203 : i32 to index
              %205 = arith.index_cast %204 : index to i64
              %206 = llvm.getelementptr %131[%205] : (!llvm.ptr<f32>, i64) -> !llvm.ptr<f32>
              %207 = llvm.load %105 : !llvm.ptr<i32>
              %208 = llvm.load %106 : !llvm.ptr<i32>
              %209 = arith.addi %208, %207 : i32
              llvm.store %209, %106 : !llvm.ptr<i32>
              %210 = llvm.load %106 : !llvm.ptr<i32>
              %211 = llvm.load %104 : !llvm.ptr<i32>
              %212 = arith.cmpi eq, %210, %211 : i32
              scf.if %212 {
                %223 = llvm.load %105 : !llvm.ptr<i32>
                %224 = arith.muli %223, %c2_i32 : i32
                %225 = llvm.load %106 : !llvm.ptr<i32>
                %226 = arith.subi %225, %224 : i32
                llvm.store %226, %106 : !llvm.ptr<i32>
                %227 = llvm.load %105 : !llvm.ptr<i32>
                %228 = arith.subi %c0_i32, %227 : i32
                llvm.store %228, %105 : !llvm.ptr<i32>
              }
              %213 = llvm.load %106 : !llvm.ptr<i32>
              %214 = arith.index_cast %213 : i32 to index
              %215 = memref.load %arg0[%214] : memref<?xf32>
              %216 = llvm.getelementptr %206[%c0_i32] : (!llvm.ptr<f32>, i32) -> !llvm.ptr<f32>
              llvm.store %215, %216 : !llvm.ptr<f32>
              %217 = arith.addi %88, %c3_i32 : i32
              %218 = scf.if %120 -> (i32) {
                %223 = arith.muli %arg2, %c2_i32 : i32
                %224 = arith.addi %223, %c-2_i32 : i32
                %225 = arith.subi %224, %119 : i32
                scf.yield %225 : i32
              } else {
                %223 = arith.cmpi ult, %119, %c0_i32 : i32
                %224 = scf.if %223 -> (i32) {
                  %225 = arith.subi %c0_i32, %119 : i32
                  scf.yield %225 : i32
                } else {
                  scf.yield %119 : i32
                }
                scf.yield %224 : i32
              }
              %219 = arith.addi %122, %218 : i32
              llvm.store %219, %104 : !llvm.ptr<i32>
              llvm.store %arg2, %105 : !llvm.ptr<i32>
              %220 = arith.muli %arg2, %217 : i32
              %221 = arith.addi %218, %220 : i32
              %222 = arith.subi %221, %arg2 : i32
              llvm.store %222, %106 : !llvm.ptr<i32>
            } else {
              %120 = arith.addi %88, %c-4_i32 : i32
              %121 = arith.cmpi uge, %119, %arg2 : i32
              %122 = scf.if %121 -> (i32) {
                %128 = arith.muli %arg2, %c2_i32 : i32
                %129 = arith.addi %128, %c-2_i32 : i32
                %130 = arith.subi %129, %119 : i32
                scf.yield %130 : i32
              } else {
                %128 = arith.cmpi ult, %119, %c0_i32 : i32
                %129 = scf.if %128 -> (i32) {
                  %130 = arith.subi %c0_i32, %119 : i32
                  scf.yield %130 : i32
                } else {
                  scf.yield %119 : i32
                }
                scf.yield %129 : i32
              }
              %123 = arith.muli %arg3, %arg2 : i32
              %124 = arith.addi %123, %122 : i32
              llvm.store %124, %104 : !llvm.ptr<i32>
              llvm.store %arg2, %105 : !llvm.ptr<i32>
              %125 = arith.muli %arg2, %120 : i32
              %126 = arith.addi %122, %125 : i32
              %127 = arith.subi %126, %arg2 : i32
              llvm.store %127, %106 : !llvm.ptr<i32>
              scf.for %arg8 = %c0 to %c7 step %c1 {
                %128 = arith.index_cast %arg8 : index to i64
                %129 = llvm.load %101 : !llvm.ptr<i32>
                %130 = arith.index_cast %129 : i32 to index
                %131 = arith.index_cast %130 : index to i64
                %132 = arith.muli %128, %c100_i64 : i64
                %133 = llvm.getelementptr %90[%c0_i32, %c0_i32] : (!llvm.ptr<struct<(array<3012 x f32>)>>, i32, i32) -> !llvm.ptr<array<3012 x f32>>
                %134 = llvm.getelementptr %133[%c0_i32, %c0_i32] : (!llvm.ptr<array<3012 x f32>>, i32, i32) -> !llvm.ptr<f32>
                %135 = arith.addi %131, %132 : i64
                %136 = llvm.getelementptr %134[%135] : (!llvm.ptr<f32>, i64) -> !llvm.ptr<f32>
                %137 = llvm.load %105 : !llvm.ptr<i32>
                %138 = llvm.load %106 : !llvm.ptr<i32>
                %139 = arith.addi %138, %137 : i32
                llvm.store %139, %106 : !llvm.ptr<i32>
                %140 = llvm.load %106 : !llvm.ptr<i32>
                %141 = llvm.load %104 : !llvm.ptr<i32>
                %142 = arith.cmpi eq, %140, %141 : i32
                scf.if %142 {
                  %147 = llvm.load %105 : !llvm.ptr<i32>
                  %148 = arith.muli %147, %c2_i32 : i32
                  %149 = llvm.load %106 : !llvm.ptr<i32>
                  %150 = arith.subi %149, %148 : i32
                  llvm.store %150, %106 : !llvm.ptr<i32>
                  %151 = llvm.load %105 : !llvm.ptr<i32>
                  %152 = arith.subi %c0_i32, %151 : i32
                  llvm.store %152, %105 : !llvm.ptr<i32>
                }
                %143 = llvm.load %106 : !llvm.ptr<i32>
                %144 = arith.index_cast %143 : i32 to index
                %145 = memref.load %arg0[%144] : memref<?xf32>
                %146 = llvm.getelementptr %136[%c0_i32] : (!llvm.ptr<f32>, i32) -> !llvm.ptr<f32>
                llvm.store %145, %146 : !llvm.ptr<f32>
              }
            }
          }
          scf.yield
        }
        %73 = memref.alloc() : memref<192xi1>
        %74 = memref.alloc() : memref<192xmemref<1xf32>>
        scf.parallel (%arg7) = (%c0) to (%c192) step (%c1) {
          %83 = memref.get_global @_ZN8dwt_cudaL11f97Predict1E : memref<1xf32>
          memref.store %83, %74[%arg7] : memref<192xmemref<1xf32>>
          %84 = affine.load %83[0] : memref<1xf32>
          scf.for %arg8 = %c0 to %c3 step %c1 {
            %87 = arith.index_cast %arg8 : index to i64
            %88 = memref.load %67[%arg7] : memref<192x!llvm.ptr<struct<(array<3012 x f32>)>>>
            %89 = llvm.getelementptr %88[%c0_i32, %c0_i32] : (!llvm.ptr<struct<(array<3012 x f32>)>>, i32, i32) -> !llvm.ptr<array<3012 x f32>>
            %90 = llvm.getelementptr %89[%c0_i32, %c0_i32] : (!llvm.ptr<array<3012 x f32>>, i32, i32) -> !llvm.ptr<f32>
            %91 = arith.muli %87, %c192_i64 : i64
            %92 = memref.load %56[%arg7] : memref<192xi64>
            %93 = arith.addi %91, %92 : i64
            %94 = llvm.getelementptr %90[%93] : (!llvm.ptr<f32>, i64) -> !llvm.ptr<f32>
            %95 = llvm.load %94 : !llvm.ptr<f32>
            %96 = arith.addi %91, %c1_i64 : i64
            %97 = memref.load %56[%arg7] : memref<192xi64>
            %98 = arith.addi %96, %97 : i64
            %99 = llvm.getelementptr %90[%98] : (!llvm.ptr<f32>, i64) -> !llvm.ptr<f32>
            %100 = llvm.load %99 : !llvm.ptr<f32>
            %101 = arith.addi %91, %c1512_i64 : i64
            %102 = memref.load %56[%arg7] : memref<192xi64>
            %103 = arith.addi %101, %102 : i64
            %104 = llvm.getelementptr %90[%103] : (!llvm.ptr<f32>, i64) -> !llvm.ptr<f32>
            %105 = arith.addf %95, %100 : f32
            %106 = arith.mulf %84, %105 : f32
            %107 = llvm.getelementptr %104[%c0_i32] : (!llvm.ptr<f32>, i32) -> !llvm.ptr<f32>
            %108 = llvm.load %107 : !llvm.ptr<f32>
            %109 = arith.addf %108, %106 : f32
            llvm.store %109, %107 : !llvm.ptr<f32>
          }
          %85 = memref.load %57[%arg7] : memref<192xi32>
          %86 = arith.cmpi ult, %85, %c123_i32 : i32
          memref.store %86, %73[%arg7] : memref<192xi1>
          scf.if %86 {
            %87 = memref.load %67[%arg7] : memref<192x!llvm.ptr<struct<(array<3012 x f32>)>>>
            %88 = llvm.getelementptr %87[%c0_i32, %c0_i32] : (!llvm.ptr<struct<(array<3012 x f32>)>>, i32, i32) -> !llvm.ptr<array<3012 x f32>>
            %89 = llvm.getelementptr %88[%c0_i32, %c0_i32] : (!llvm.ptr<array<3012 x f32>>, i32, i32) -> !llvm.ptr<f32>
            %90 = memref.load %56[%arg7] : memref<192xi64>
            %91 = arith.addi %90, %c576_i64 : i64
            %92 = llvm.getelementptr %89[%91] : (!llvm.ptr<f32>, i64) -> !llvm.ptr<f32>
            %93 = llvm.load %92 : !llvm.ptr<f32>
            %94 = memref.load %56[%arg7] : memref<192xi64>
            %95 = arith.addi %94, %c577_i64 : i64
            %96 = llvm.getelementptr %89[%95] : (!llvm.ptr<f32>, i64) -> !llvm.ptr<f32>
            %97 = llvm.load %96 : !llvm.ptr<f32>
            %98 = memref.load %56[%arg7] : memref<192xi64>
            %99 = arith.addi %98, %c2088_i64 : i64
            %100 = llvm.getelementptr %89[%99] : (!llvm.ptr<f32>, i64) -> !llvm.ptr<f32>
            %101 = arith.addf %93, %97 : f32
            %102 = arith.mulf %84, %101 : f32
            %103 = llvm.getelementptr %100[%c0_i32] : (!llvm.ptr<f32>, i32) -> !llvm.ptr<f32>
            %104 = llvm.load %103 : !llvm.ptr<f32>
            %105 = arith.addf %104, %102 : f32
            llvm.store %105, %103 : !llvm.ptr<f32>
          }
          scf.yield
        }
        %75 = memref.alloc() : memref<192xmemref<1xf32>>
        scf.parallel (%arg7) = (%c0) to (%c192) step (%c1) {
          %83 = memref.get_global @_ZN8dwt_cudaL10f97Update1E : memref<1xf32>
          memref.store %83, %75[%arg7] : memref<192xmemref<1xf32>>
          %84 = affine.load %83[0] : memref<1xf32>
          scf.for %arg8 = %c0 to %c3 step %c1 {
            %86 = arith.index_cast %arg8 : index to i64
            %87 = memref.load %67[%arg7] : memref<192x!llvm.ptr<struct<(array<3012 x f32>)>>>
            %88 = llvm.getelementptr %87[%c0_i32, %c0_i32] : (!llvm.ptr<struct<(array<3012 x f32>)>>, i32, i32) -> !llvm.ptr<array<3012 x f32>>
            %89 = llvm.getelementptr %88[%c0_i32, %c0_i32] : (!llvm.ptr<array<3012 x f32>>, i32, i32) -> !llvm.ptr<f32>
            %90 = arith.muli %86, %c192_i64 : i64
            %91 = arith.addi %90, %c1512_i64 : i64
            %92 = memref.load %56[%arg7] : memref<192xi64>
            %93 = arith.addi %91, %92 : i64
            %94 = llvm.getelementptr %89[%93] : (!llvm.ptr<f32>, i64) -> !llvm.ptr<f32>
            %95 = llvm.load %94 : !llvm.ptr<f32>
            %96 = arith.addi %90, %c1513_i64 : i64
            %97 = memref.load %56[%arg7] : memref<192xi64>
            %98 = arith.addi %96, %97 : i64
            %99 = llvm.getelementptr %89[%98] : (!llvm.ptr<f32>, i64) -> !llvm.ptr<f32>
            %100 = llvm.load %99 : !llvm.ptr<f32>
            %101 = arith.addi %90, %c1_i64 : i64
            %102 = memref.load %56[%arg7] : memref<192xi64>
            %103 = arith.addi %101, %102 : i64
            %104 = llvm.getelementptr %89[%103] : (!llvm.ptr<f32>, i64) -> !llvm.ptr<f32>
            %105 = arith.addf %95, %100 : f32
            %106 = arith.mulf %84, %105 : f32
            %107 = llvm.getelementptr %104[%c0_i32] : (!llvm.ptr<f32>, i32) -> !llvm.ptr<f32>
            %108 = llvm.load %107 : !llvm.ptr<f32>
            %109 = arith.addf %108, %106 : f32
            llvm.store %109, %107 : !llvm.ptr<f32>
          }
          %85 = memref.load %73[%arg7] : memref<192xi1>
          scf.if %85 {
            %86 = memref.load %67[%arg7] : memref<192x!llvm.ptr<struct<(array<3012 x f32>)>>>
            %87 = llvm.getelementptr %86[%c0_i32, %c0_i32] : (!llvm.ptr<struct<(array<3012 x f32>)>>, i32, i32) -> !llvm.ptr<array<3012 x f32>>
            %88 = llvm.getelementptr %87[%c0_i32, %c0_i32] : (!llvm.ptr<array<3012 x f32>>, i32, i32) -> !llvm.ptr<f32>
            %89 = memref.load %56[%arg7] : memref<192xi64>
            %90 = arith.addi %89, %c2088_i64 : i64
            %91 = llvm.getelementptr %88[%90] : (!llvm.ptr<f32>, i64) -> !llvm.ptr<f32>
            %92 = llvm.load %91 : !llvm.ptr<f32>
            %93 = memref.load %56[%arg7] : memref<192xi64>
            %94 = arith.addi %93, %c2089_i64 : i64
            %95 = llvm.getelementptr %88[%94] : (!llvm.ptr<f32>, i64) -> !llvm.ptr<f32>
            %96 = llvm.load %95 : !llvm.ptr<f32>
            %97 = memref.load %56[%arg7] : memref<192xi64>
            %98 = arith.addi %97, %c577_i64 : i64
            %99 = llvm.getelementptr %88[%98] : (!llvm.ptr<f32>, i64) -> !llvm.ptr<f32>
            %100 = arith.addf %92, %96 : f32
            %101 = arith.mulf %84, %100 : f32
            %102 = llvm.getelementptr %99[%c0_i32] : (!llvm.ptr<f32>, i32) -> !llvm.ptr<f32>
            %103 = llvm.load %102 : !llvm.ptr<f32>
            %104 = arith.addf %103, %101 : f32
            llvm.store %104, %102 : !llvm.ptr<f32>
          }
          scf.yield
        }
        %76 = memref.alloc() : memref<192xmemref<1xf32>>
        scf.parallel (%arg7) = (%c0) to (%c192) step (%c1) {
          %83 = memref.get_global @_ZN8dwt_cudaL11f97Predict2E : memref<1xf32>
          memref.store %83, %76[%arg7] : memref<192xmemref<1xf32>>
          %84 = affine.load %83[0] : memref<1xf32>
          scf.for %arg8 = %c0 to %c3 step %c1 {
            %86 = arith.index_cast %arg8 : index to i64
            %87 = memref.load %67[%arg7] : memref<192x!llvm.ptr<struct<(array<3012 x f32>)>>>
            %88 = llvm.getelementptr %87[%c0_i32, %c0_i32] : (!llvm.ptr<struct<(array<3012 x f32>)>>, i32, i32) -> !llvm.ptr<array<3012 x f32>>
            %89 = llvm.getelementptr %88[%c0_i32, %c0_i32] : (!llvm.ptr<array<3012 x f32>>, i32, i32) -> !llvm.ptr<f32>
            %90 = arith.muli %86, %c192_i64 : i64
            %91 = memref.load %56[%arg7] : memref<192xi64>
            %92 = arith.addi %90, %91 : i64
            %93 = llvm.getelementptr %89[%92] : (!llvm.ptr<f32>, i64) -> !llvm.ptr<f32>
            %94 = llvm.load %93 : !llvm.ptr<f32>
            %95 = arith.addi %90, %c1_i64 : i64
            %96 = memref.load %56[%arg7] : memref<192xi64>
            %97 = arith.addi %95, %96 : i64
            %98 = llvm.getelementptr %89[%97] : (!llvm.ptr<f32>, i64) -> !llvm.ptr<f32>
            %99 = llvm.load %98 : !llvm.ptr<f32>
            %100 = arith.addi %90, %c1512_i64 : i64
            %101 = memref.load %56[%arg7] : memref<192xi64>
            %102 = arith.addi %100, %101 : i64
            %103 = llvm.getelementptr %89[%102] : (!llvm.ptr<f32>, i64) -> !llvm.ptr<f32>
            %104 = arith.addf %94, %99 : f32
            %105 = arith.mulf %84, %104 : f32
            %106 = llvm.getelementptr %103[%c0_i32] : (!llvm.ptr<f32>, i32) -> !llvm.ptr<f32>
            %107 = llvm.load %106 : !llvm.ptr<f32>
            %108 = arith.addf %107, %105 : f32
            llvm.store %108, %106 : !llvm.ptr<f32>
          }
          %85 = memref.load %73[%arg7] : memref<192xi1>
          scf.if %85 {
            %86 = memref.load %67[%arg7] : memref<192x!llvm.ptr<struct<(array<3012 x f32>)>>>
            %87 = llvm.getelementptr %86[%c0_i32, %c0_i32] : (!llvm.ptr<struct<(array<3012 x f32>)>>, i32, i32) -> !llvm.ptr<array<3012 x f32>>
            %88 = llvm.getelementptr %87[%c0_i32, %c0_i32] : (!llvm.ptr<array<3012 x f32>>, i32, i32) -> !llvm.ptr<f32>
            %89 = memref.load %56[%arg7] : memref<192xi64>
            %90 = arith.addi %89, %c576_i64 : i64
            %91 = llvm.getelementptr %88[%90] : (!llvm.ptr<f32>, i64) -> !llvm.ptr<f32>
            %92 = llvm.load %91 : !llvm.ptr<f32>
            %93 = memref.load %56[%arg7] : memref<192xi64>
            %94 = arith.addi %93, %c577_i64 : i64
            %95 = llvm.getelementptr %88[%94] : (!llvm.ptr<f32>, i64) -> !llvm.ptr<f32>
            %96 = llvm.load %95 : !llvm.ptr<f32>
            %97 = memref.load %56[%arg7] : memref<192xi64>
            %98 = arith.addi %97, %c2088_i64 : i64
            %99 = llvm.getelementptr %88[%98] : (!llvm.ptr<f32>, i64) -> !llvm.ptr<f32>
            %100 = arith.addf %92, %96 : f32
            %101 = arith.mulf %84, %100 : f32
            %102 = llvm.getelementptr %99[%c0_i32] : (!llvm.ptr<f32>, i32) -> !llvm.ptr<f32>
            %103 = llvm.load %102 : !llvm.ptr<f32>
            %104 = arith.addf %103, %101 : f32
            llvm.store %104, %102 : !llvm.ptr<f32>
          }
          scf.yield
        }
        %77 = memref.alloc() : memref<192xmemref<1xf32>>
        scf.parallel (%arg7) = (%c0) to (%c192) step (%c1) {
          %83 = memref.get_global @_ZN8dwt_cudaL10f97Update2E : memref<1xf32>
          memref.store %83, %77[%arg7] : memref<192xmemref<1xf32>>
          %84 = affine.load %83[0] : memref<1xf32>
          scf.for %arg8 = %c0 to %c3 step %c1 {
            %86 = arith.index_cast %arg8 : index to i64
            %87 = memref.load %67[%arg7] : memref<192x!llvm.ptr<struct<(array<3012 x f32>)>>>
            %88 = llvm.getelementptr %87[%c0_i32, %c0_i32] : (!llvm.ptr<struct<(array<3012 x f32>)>>, i32, i32) -> !llvm.ptr<array<3012 x f32>>
            %89 = llvm.getelementptr %88[%c0_i32, %c0_i32] : (!llvm.ptr<array<3012 x f32>>, i32, i32) -> !llvm.ptr<f32>
            %90 = arith.muli %86, %c192_i64 : i64
            %91 = arith.addi %90, %c1512_i64 : i64
            %92 = memref.load %56[%arg7] : memref<192xi64>
            %93 = arith.addi %91, %92 : i64
            %94 = llvm.getelementptr %89[%93] : (!llvm.ptr<f32>, i64) -> !llvm.ptr<f32>
            %95 = llvm.load %94 : !llvm.ptr<f32>
            %96 = arith.addi %90, %c1513_i64 : i64
            %97 = memref.load %56[%arg7] : memref<192xi64>
            %98 = arith.addi %96, %97 : i64
            %99 = llvm.getelementptr %89[%98] : (!llvm.ptr<f32>, i64) -> !llvm.ptr<f32>
            %100 = llvm.load %99 : !llvm.ptr<f32>
            %101 = arith.addi %90, %c1_i64 : i64
            %102 = memref.load %56[%arg7] : memref<192xi64>
            %103 = arith.addi %101, %102 : i64
            %104 = llvm.getelementptr %89[%103] : (!llvm.ptr<f32>, i64) -> !llvm.ptr<f32>
            %105 = arith.addf %95, %100 : f32
            %106 = arith.mulf %84, %105 : f32
            %107 = llvm.getelementptr %104[%c0_i32] : (!llvm.ptr<f32>, i32) -> !llvm.ptr<f32>
            %108 = llvm.load %107 : !llvm.ptr<f32>
            %109 = arith.addf %108, %106 : f32
            llvm.store %109, %107 : !llvm.ptr<f32>
          }
          %85 = memref.load %73[%arg7] : memref<192xi1>
          scf.if %85 {
            %86 = memref.load %67[%arg7] : memref<192x!llvm.ptr<struct<(array<3012 x f32>)>>>
            %87 = llvm.getelementptr %86[%c0_i32, %c0_i32] : (!llvm.ptr<struct<(array<3012 x f32>)>>, i32, i32) -> !llvm.ptr<array<3012 x f32>>
            %88 = llvm.getelementptr %87[%c0_i32, %c0_i32] : (!llvm.ptr<array<3012 x f32>>, i32, i32) -> !llvm.ptr<f32>
            %89 = memref.load %56[%arg7] : memref<192xi64>
            %90 = arith.addi %89, %c2088_i64 : i64
            %91 = llvm.getelementptr %88[%90] : (!llvm.ptr<f32>, i64) -> !llvm.ptr<f32>
            %92 = llvm.load %91 : !llvm.ptr<f32>
            %93 = memref.load %56[%arg7] : memref<192xi64>
            %94 = arith.addi %93, %c2089_i64 : i64
            %95 = llvm.getelementptr %88[%94] : (!llvm.ptr<f32>, i64) -> !llvm.ptr<f32>
            %96 = llvm.load %95 : !llvm.ptr<f32>
            %97 = memref.load %56[%arg7] : memref<192xi64>
            %98 = arith.addi %97, %c577_i64 : i64
            %99 = llvm.getelementptr %88[%98] : (!llvm.ptr<f32>, i64) -> !llvm.ptr<f32>
            %100 = arith.addf %92, %96 : f32
            %101 = arith.mulf %84, %100 : f32
            %102 = llvm.getelementptr %99[%c0_i32] : (!llvm.ptr<f32>, i32) -> !llvm.ptr<f32>
            %103 = llvm.load %102 : !llvm.ptr<f32>
            %104 = arith.addf %103, %101 : f32
            llvm.store %104, %102 : !llvm.ptr<f32>
          }
          scf.yield
        }
        %78 = memref.alloc() : memref<192xmemref<1xf32>>
        %79 = memref.alloc() : memref<192xmemref<1xf32>>
        scf.parallel (%arg7) = (%c0) to (%c192) step (%c1) {
          %83 = memref.get_global @_ZN8dwt_cudaL10scale97DivE : memref<1xf32>
          memref.store %83, %79[%arg7] : memref<192xmemref<1xf32>>
          %84 = affine.load %83[0] : memref<1xf32>
          %85 = memref.get_global @_ZN8dwt_cudaL10scale97MulE : memref<1xf32>
          memref.store %85, %78[%arg7] : memref<192xmemref<1xf32>>
          %86 = affine.load %85[0] : memref<1xf32>
          scf.for %arg8 = %c0 to %c3 step %c1 {
            %89 = arith.index_cast %arg8 : index to i64
            %90 = memref.load %67[%arg7] : memref<192x!llvm.ptr<struct<(array<3012 x f32>)>>>
            %91 = llvm.getelementptr %90[%c0_i32, %c0_i32] : (!llvm.ptr<struct<(array<3012 x f32>)>>, i32, i32) -> !llvm.ptr<array<3012 x f32>>
            %92 = llvm.getelementptr %91[%c0_i32, %c0_i32] : (!llvm.ptr<array<3012 x f32>>, i32, i32) -> !llvm.ptr<f32>
            %93 = arith.muli %89, %c192_i64 : i64
            %94 = memref.load %56[%arg7] : memref<192xi64>
            %95 = arith.addi %94, %93 : i64
            %96 = llvm.getelementptr %92[%95] : (!llvm.ptr<f32>, i64) -> !llvm.ptr<f32>
            %97 = llvm.load %96 : !llvm.ptr<f32>
            %98 = arith.mulf %97, %84 : f32
            llvm.store %98, %96 : !llvm.ptr<f32>
            %99 = arith.addi %95, %c1512_i64 : i64
            %100 = llvm.getelementptr %92[%99] : (!llvm.ptr<f32>, i64) -> !llvm.ptr<f32>
            %101 = llvm.load %100 : !llvm.ptr<f32>
            %102 = arith.mulf %101, %86 : f32
            llvm.store %102, %100 : !llvm.ptr<f32>
          }
          %87 = memref.load %57[%arg7] : memref<192xi32>
          %88 = arith.cmpi ult, %87, %c124_i32 : i32
          scf.if %88 {
            %89 = memref.load %67[%arg7] : memref<192x!llvm.ptr<struct<(array<3012 x f32>)>>>
            %90 = llvm.getelementptr %89[%c0_i32, %c0_i32] : (!llvm.ptr<struct<(array<3012 x f32>)>>, i32, i32) -> !llvm.ptr<array<3012 x f32>>
            %91 = llvm.getelementptr %90[%c0_i32, %c0_i32] : (!llvm.ptr<array<3012 x f32>>, i32, i32) -> !llvm.ptr<f32>
            %92 = memref.load %56[%arg7] : memref<192xi64>
            %93 = arith.addi %92, %c576_i64 : i64
            %94 = llvm.getelementptr %91[%93] : (!llvm.ptr<f32>, i64) -> !llvm.ptr<f32>
            %95 = llvm.load %94 : !llvm.ptr<f32>
            %96 = arith.mulf %95, %84 : f32
            llvm.store %96, %94 : !llvm.ptr<f32>
            %97 = memref.load %56[%arg7] : memref<192xi64>
            %98 = arith.addi %97, %c2088_i64 : i64
            %99 = llvm.getelementptr %91[%98] : (!llvm.ptr<f32>, i64) -> !llvm.ptr<f32>
            %100 = llvm.load %99 : !llvm.ptr<f32>
            %101 = arith.mulf %100, %86 : f32
            llvm.store %101, %99 : !llvm.ptr<f32>
          }
          scf.yield
        }
        %80 = memref.alloc() : memref<192xindex>
        %81 = memref.alloc() : memref<192xi64>
        scf.parallel (%arg7) = (%c0) to (%c192) step (%c1) {
          %83 = memref.load %57[%arg7] : memref<192xi32>
          %84 = arith.muli %83, %c2_i32 : i32
          %85 = memref.load %57[%arg7] : memref<192xi32>
          %86 = arith.divui %85, %c96_i32 : i32
          %87 = arith.muli %86, %c191_i32 : i32
          %88 = arith.subi %84, %87 : i32
          %89 = memref.load %66[%arg7] : memref<192xi32>
          %90 = arith.addi %89, %88 : i32
          %91 = arith.cmpi ult, %90, %arg2 : i32
          scf.if %91 {
            %102 = memref.load %71[%arg7] : memref<192x!llvm.ptr<struct<(struct<(i32, i32, i32)>, i32)>>>
            %103 = llvm.getelementptr %102[%c0_i32, %c1_i32] : (!llvm.ptr<struct<(struct<(i32, i32, i32)>, i32)>>, i32, i32) -> !llvm.ptr<i32>
            %104 = memref.load %71[%arg7] : memref<192x!llvm.ptr<struct<(struct<(i32, i32, i32)>, i32)>>>
            %105 = llvm.bitcast %104 : !llvm.ptr<struct<(struct<(i32, i32, i32)>, i32)>> to !llvm.ptr<struct<(i32, i32, i32)>>
            %106 = arith.divsi %90, %c2_i32 : i32
            %107 = arith.andi %90, %c1_i32 : i32
            %108 = arith.trunci %107 : i32 to i8
            %109 = arith.trunci %108 : i8 to i1
            %110:2 = scf.if %109 -> (i32, i32) {
              %132 = arith.divsi %arg2, %c2_i32 : i32
              %133 = arith.remsi %arg2, %c2_i32 : i32
              %134 = arith.trunci %133 : i32 to i8
              %135 = arith.trunci %134 : i8 to i1
              %136 = select %135, %c1_i32, %c0_i32 : i32
              %137 = arith.addi %132, %136 : i32
              %138 = arith.divsi %arg3, %c2_i32 : i32
              %139 = arith.remsi %arg3, %c2_i32 : i32
              %140 = arith.trunci %139 : i32 to i8
              %141 = arith.trunci %140 : i8 to i1
              %142 = select %141, %c1_i32, %c0_i32 : i32
              %143 = arith.addi %138, %142 : i32
              %144 = arith.muli %137, %143 : i32
              %145 = arith.addi %106, %144 : i32
              %146 = llvm.getelementptr %105[%c0_i32, %c2_i32] : (!llvm.ptr<struct<(i32, i32, i32)>>, i32, i32) -> !llvm.ptr<i32>
              %147 = arith.muli %arg2, %arg3 : i32
              %148 = arith.divsi %147, %c2_i32 : i32
              llvm.store %148, %146 : !llvm.ptr<i32>
              scf.yield %132, %145 : i32, i32
            } else {
              %132 = arith.divsi %arg2, %c2_i32 : i32
              %133 = arith.andi %arg2, %c1_i32 : i32
              %134 = arith.addi %132, %133 : i32
              %135 = llvm.getelementptr %105[%c0_i32, %c2_i32] : (!llvm.ptr<struct<(i32, i32, i32)>>, i32, i32) -> !llvm.ptr<i32>
              %136 = arith.divsi %arg3, %c2_i32 : i32
              %137 = arith.remsi %arg3, %c2_i32 : i32
              %138 = arith.trunci %137 : i32 to i8
              %139 = arith.trunci %138 : i8 to i1
              %140 = select %139, %c1_i32, %c0_i32 : i32
              %141 = arith.addi %136, %140 : i32
              %142 = arith.muli %141, %arg2 : i32
              llvm.store %142, %135 : !llvm.ptr<i32>
              scf.yield %134, %106 : i32, i32
            }
            %111 = llvm.getelementptr %105[%c0_i32, %c1_i32] : (!llvm.ptr<struct<(i32, i32, i32)>>, i32, i32) -> !llvm.ptr<i32>
            %112 = llvm.getelementptr %105[%c0_i32, %c2_i32] : (!llvm.ptr<struct<(i32, i32, i32)>>, i32, i32) -> !llvm.ptr<i32>
            %113 = llvm.load %112 : !llvm.ptr<i32>
            %114 = arith.subi %110#0, %113 : i32
            llvm.store %114, %111 : !llvm.ptr<i32>
            %115 = llvm.getelementptr %105[%c0_i32, %c0_i32] : (!llvm.ptr<struct<(i32, i32, i32)>>, i32, i32) -> !llvm.ptr<i32>
            %116 = arith.divsi %arg3, %c2_i32 : i32
            %117 = arith.muli %116, %110#0 : i32
            %118 = arith.addi %110#1, %117 : i32
            %119 = arith.andi %arg3, %c1_i32 : i32
            %120 = llvm.load %112 : !llvm.ptr<i32>
            %121 = arith.muli %119, %120 : i32
            %122 = arith.addi %118, %121 : i32
            llvm.store %122, %115 : !llvm.ptr<i32>
            %123 = memref.load %69[%arg7] : memref<192xi32>
            %124 = arith.divsi %123, %c2_i32 : i32
            %125 = arith.muli %124, %110#0 : i32
            %126 = arith.addi %110#1, %125 : i32
            %127 = memref.load %69[%arg7] : memref<192xi32>
            %128 = arith.andi %127, %c1_i32 : i32
            %129 = llvm.load %112 : !llvm.ptr<i32>
            %130 = arith.muli %128, %129 : i32
            %131 = arith.addi %126, %130 : i32
            llvm.store %131, %103 : !llvm.ptr<i32>
          } else {
            %102 = memref.load %71[%arg7] : memref<192x!llvm.ptr<struct<(struct<(i32, i32, i32)>, i32)>>>
            %103 = llvm.bitcast %102 : !llvm.ptr<struct<(struct<(i32, i32, i32)>, i32)>> to !llvm.ptr<struct<(i32, i32, i32)>>
            %104 = llvm.getelementptr %103[%c0_i32, %c0_i32] : (!llvm.ptr<struct<(i32, i32, i32)>>, i32, i32) -> !llvm.ptr<i32>
            llvm.store %c0_i32, %104 : !llvm.ptr<i32>
            %105 = llvm.getelementptr %103[%c0_i32, %c1_i32] : (!llvm.ptr<struct<(i32, i32, i32)>>, i32, i32) -> !llvm.ptr<i32>
            llvm.store %c0_i32, %105 : !llvm.ptr<i32>
            %106 = llvm.getelementptr %103[%c0_i32, %c2_i32] : (!llvm.ptr<struct<(i32, i32, i32)>>, i32, i32) -> !llvm.ptr<i32>
            llvm.store %c0_i32, %106 : !llvm.ptr<i32>
            %107 = memref.load %71[%arg7] : memref<192x!llvm.ptr<struct<(struct<(i32, i32, i32)>, i32)>>>
            %108 = llvm.getelementptr %107[%c0_i32, %c1_i32] : (!llvm.ptr<struct<(struct<(i32, i32, i32)>, i32)>>, i32, i32) -> !llvm.ptr<i32>
            llvm.store %c0_i32, %108 : !llvm.ptr<i32>
          }
          %92 = arith.addi %88, %c4_i32 : i32
          %93 = arith.divsi %92, %c2_i32 : i32
          %94 = arith.index_cast %93 : i32 to index
          %95 = arith.index_cast %94 : index to i64
          %96 = arith.andi %92, %c1_i32 : i32
          %97 = arith.index_cast %96 : i32 to index
          %98 = arith.index_cast %97 : index to i64
          %99 = arith.muli %98, %c1512_i64 : i64
          %100 = arith.addi %95, %99 : i64
          memref.store %100, %81[%arg7] : memref<192xi64>
          %101 = arith.addi %3, %8 : index
          memref.store %101, %80[%arg7] : memref<192xindex>
          scf.yield
        }
        %82 = memref.load %80[%c0] : memref<192xindex>
        scf.for %arg7 = %c0 to %82 step %c1 {
          scf.parallel (%arg8) = (%c0) to (%c192) step (%c1) {
            scf.for %arg9 = %c7 to %c15 step %c1 {
              %85 = arith.index_cast %arg9 : index to i64
              %86 = memref.load %68[%arg8] : memref<192x!llvm.ptr<i32>>
              %87 = llvm.load %86 : !llvm.ptr<i32>
              %88 = arith.index_cast %87 : i32 to index
              %89 = arith.index_cast %88 : index to i64
              %90 = arith.muli %85, %c100_i64 : i64
              %91 = memref.load %67[%arg8] : memref<192x!llvm.ptr<struct<(array<3012 x f32>)>>>
              %92 = llvm.getelementptr %91[%c0_i32, %c0_i32] : (!llvm.ptr<struct<(array<3012 x f32>)>>, i32, i32) -> !llvm.ptr<array<3012 x f32>>
              %93 = llvm.getelementptr %92[%c0_i32, %c0_i32] : (!llvm.ptr<array<3012 x f32>>, i32, i32) -> !llvm.ptr<f32>
              %94 = arith.addi %89, %90 : i64
              %95 = llvm.getelementptr %93[%94] : (!llvm.ptr<f32>, i64) -> !llvm.ptr<f32>
              %96 = memref.load %70[%arg8] : memref<192x!llvm.ptr<struct<(struct<(struct<(i32, i32)>, i32)>, i32)>>>
              %97 = llvm.getelementptr %96[%c0_i32, %c0_i32] : (!llvm.ptr<struct<(struct<(struct<(i32, i32)>, i32)>, i32)>>, i32, i32) -> !llvm.ptr<struct<(struct<(i32, i32)>, i32)>>
              %98 = llvm.getelementptr %97[%c0_i32, %c1_i32] : (!llvm.ptr<struct<(struct<(i32, i32)>, i32)>>, i32, i32) -> !llvm.ptr<i32>
              %99 = llvm.bitcast %97 : !llvm.ptr<struct<(struct<(i32, i32)>, i32)>> to !llvm.ptr<struct<(i32, i32)>>
              %100 = llvm.getelementptr %99[%c0_i32, %c1_i32] : (!llvm.ptr<struct<(i32, i32)>>, i32, i32) -> !llvm.ptr<i32>
              %101 = llvm.load %100 : !llvm.ptr<i32>
              %102 = llvm.load %98 : !llvm.ptr<i32>
              %103 = arith.addi %102, %101 : i32
              llvm.store %103, %98 : !llvm.ptr<i32>
              %104 = llvm.load %98 : !llvm.ptr<i32>
              %105 = llvm.getelementptr %99[%c0_i32, %c0_i32] : (!llvm.ptr<struct<(i32, i32)>>, i32, i32) -> !llvm.ptr<i32>
              %106 = llvm.load %105 : !llvm.ptr<i32>
              %107 = arith.cmpi eq, %104, %106 : i32
              scf.if %107 {
                %112 = llvm.load %100 : !llvm.ptr<i32>
                %113 = arith.muli %112, %c2_i32 : i32
                %114 = llvm.load %98 : !llvm.ptr<i32>
                %115 = arith.subi %114, %113 : i32
                llvm.store %115, %98 : !llvm.ptr<i32>
                %116 = llvm.load %100 : !llvm.ptr<i32>
                %117 = arith.subi %c0_i32, %116 : i32
                llvm.store %117, %100 : !llvm.ptr<i32>
              }
              %108 = llvm.load %98 : !llvm.ptr<i32>
              %109 = arith.index_cast %108 : i32 to index
              %110 = memref.load %arg0[%109] : memref<?xf32>
              %111 = llvm.getelementptr %95[%c0_i32] : (!llvm.ptr<f32>, i32) -> !llvm.ptr<f32>
              llvm.store %110, %111 : !llvm.ptr<f32>
            }
            %84 = memref.load %61[%arg8] : memref<192xi1>
            scf.if %84 {
              scf.for %arg9 = %c7 to %c15 step %c1 {
                %85 = arith.index_cast %arg9 : index to i64
                %86 = memref.load %65[%arg8] : memref<192x!llvm.ptr<i32>>
                %87 = llvm.load %86 : !llvm.ptr<i32>
                %88 = arith.index_cast %87 : i32 to index
                %89 = arith.index_cast %88 : index to i64
                %90 = arith.muli %85, %c100_i64 : i64
                %91 = memref.load %67[%arg8] : memref<192x!llvm.ptr<struct<(array<3012 x f32>)>>>
                %92 = llvm.getelementptr %91[%c0_i32, %c0_i32] : (!llvm.ptr<struct<(array<3012 x f32>)>>, i32, i32) -> !llvm.ptr<array<3012 x f32>>
                %93 = llvm.getelementptr %92[%c0_i32, %c0_i32] : (!llvm.ptr<array<3012 x f32>>, i32, i32) -> !llvm.ptr<f32>
                %94 = arith.addi %89, %90 : i64
                %95 = llvm.getelementptr %93[%94] : (!llvm.ptr<f32>, i64) -> !llvm.ptr<f32>
                %96 = memref.load %63[%arg8] : memref<192x!llvm.ptr<i32>>
                %97 = llvm.load %96 : !llvm.ptr<i32>
                %98 = memref.load %62[%arg8] : memref<192x!llvm.ptr<i32>>
                %99 = llvm.load %98 : !llvm.ptr<i32>
                %100 = arith.addi %99, %97 : i32
                %101 = memref.load %62[%arg8] : memref<192x!llvm.ptr<i32>>
                llvm.store %100, %101 : !llvm.ptr<i32>
                %102 = memref.load %62[%arg8] : memref<192x!llvm.ptr<i32>>
                %103 = llvm.load %102 : !llvm.ptr<i32>
                %104 = memref.load %64[%arg8] : memref<192x!llvm.ptr<i32>>
                %105 = llvm.load %104 : !llvm.ptr<i32>
                %106 = arith.cmpi eq, %103, %105 : i32
                scf.if %106 {
                  %112 = memref.load %63[%arg8] : memref<192x!llvm.ptr<i32>>
                  %113 = llvm.load %112 : !llvm.ptr<i32>
                  %114 = arith.muli %113, %c2_i32 : i32
                  %115 = memref.load %62[%arg8] : memref<192x!llvm.ptr<i32>>
                  %116 = llvm.load %115 : !llvm.ptr<i32>
                  %117 = arith.subi %116, %114 : i32
                  %118 = memref.load %62[%arg8] : memref<192x!llvm.ptr<i32>>
                  llvm.store %117, %118 : !llvm.ptr<i32>
                  %119 = memref.load %63[%arg8] : memref<192x!llvm.ptr<i32>>
                  %120 = llvm.load %119 : !llvm.ptr<i32>
                  %121 = arith.subi %c0_i32, %120 : i32
                  %122 = memref.load %63[%arg8] : memref<192x!llvm.ptr<i32>>
                  llvm.store %121, %122 : !llvm.ptr<i32>
                }
                %107 = memref.load %62[%arg8] : memref<192x!llvm.ptr<i32>>
                %108 = llvm.load %107 : !llvm.ptr<i32>
                %109 = arith.index_cast %108 : i32 to index
                %110 = memref.load %arg0[%109] : memref<?xf32>
                %111 = llvm.getelementptr %95[%c0_i32] : (!llvm.ptr<f32>, i32) -> !llvm.ptr<f32>
                llvm.store %110, %111 : !llvm.ptr<f32>
              }
            }
            scf.yield
          }
          %83 = memref.alloc() : memref<192xi1>
          scf.parallel (%arg8) = (%c0) to (%c192) step (%c1) {
            %84 = memref.load %74[%arg8] : memref<192xmemref<1xf32>>
            %85 = affine.load %84[0] : memref<1xf32>
            scf.for %arg9 = %c0 to %c4 step %c1 {
              %88 = arith.index_cast %arg9 : index to i64
              %89 = memref.load %67[%arg8] : memref<192x!llvm.ptr<struct<(array<3012 x f32>)>>>
              %90 = llvm.getelementptr %89[%c0_i32, %c0_i32] : (!llvm.ptr<struct<(array<3012 x f32>)>>, i32, i32) -> !llvm.ptr<array<3012 x f32>>
              %91 = llvm.getelementptr %90[%c0_i32, %c0_i32] : (!llvm.ptr<array<3012 x f32>>, i32, i32) -> !llvm.ptr<f32>
              %92 = arith.muli %88, %c192_i64 : i64
              %93 = arith.addi %92, %c700_i64 : i64
              %94 = memref.load %56[%arg8] : memref<192xi64>
              %95 = arith.addi %93, %94 : i64
              %96 = llvm.getelementptr %91[%95] : (!llvm.ptr<f32>, i64) -> !llvm.ptr<f32>
              %97 = llvm.load %96 : !llvm.ptr<f32>
              %98 = arith.addi %92, %c701_i64 : i64
              %99 = memref.load %56[%arg8] : memref<192xi64>
              %100 = arith.addi %98, %99 : i64
              %101 = llvm.getelementptr %91[%100] : (!llvm.ptr<f32>, i64) -> !llvm.ptr<f32>
              %102 = llvm.load %101 : !llvm.ptr<f32>
              %103 = arith.addi %92, %c2212_i64 : i64
              %104 = memref.load %56[%arg8] : memref<192xi64>
              %105 = arith.addi %103, %104 : i64
              %106 = llvm.getelementptr %91[%105] : (!llvm.ptr<f32>, i64) -> !llvm.ptr<f32>
              %107 = arith.addf %97, %102 : f32
              %108 = arith.mulf %85, %107 : f32
              %109 = llvm.getelementptr %106[%c0_i32] : (!llvm.ptr<f32>, i32) -> !llvm.ptr<f32>
              %110 = llvm.load %109 : !llvm.ptr<f32>
              %111 = arith.addf %110, %108 : f32
              llvm.store %111, %109 : !llvm.ptr<f32>
            }
            %86 = memref.load %57[%arg8] : memref<192xi32>
            %87 = arith.cmpi ult, %86, %c31_i32 : i32
            memref.store %87, %83[%arg8] : memref<192xi1>
            scf.if %87 {
              %88 = memref.load %67[%arg8] : memref<192x!llvm.ptr<struct<(array<3012 x f32>)>>>
              %89 = llvm.getelementptr %88[%c0_i32, %c0_i32] : (!llvm.ptr<struct<(array<3012 x f32>)>>, i32, i32) -> !llvm.ptr<array<3012 x f32>>
              %90 = llvm.getelementptr %89[%c0_i32, %c0_i32] : (!llvm.ptr<array<3012 x f32>>, i32, i32) -> !llvm.ptr<f32>
              %91 = memref.load %56[%arg8] : memref<192xi64>
              %92 = arith.addi %91, %c1468_i64 : i64
              %93 = llvm.getelementptr %90[%92] : (!llvm.ptr<f32>, i64) -> !llvm.ptr<f32>
              %94 = llvm.load %93 : !llvm.ptr<f32>
              %95 = memref.load %56[%arg8] : memref<192xi64>
              %96 = arith.addi %95, %c1469_i64 : i64
              %97 = llvm.getelementptr %90[%96] : (!llvm.ptr<f32>, i64) -> !llvm.ptr<f32>
              %98 = llvm.load %97 : !llvm.ptr<f32>
              %99 = memref.load %56[%arg8] : memref<192xi64>
              %100 = arith.addi %99, %c2980_i64 : i64
              %101 = llvm.getelementptr %90[%100] : (!llvm.ptr<f32>, i64) -> !llvm.ptr<f32>
              %102 = arith.addf %94, %98 : f32
              %103 = arith.mulf %85, %102 : f32
              %104 = llvm.getelementptr %101[%c0_i32] : (!llvm.ptr<f32>, i32) -> !llvm.ptr<f32>
              %105 = llvm.load %104 : !llvm.ptr<f32>
              %106 = arith.addf %105, %103 : f32
              llvm.store %106, %104 : !llvm.ptr<f32>
            }
            scf.yield
          }
          scf.parallel (%arg8) = (%c0) to (%c192) step (%c1) {
            %84 = memref.load %75[%arg8] : memref<192xmemref<1xf32>>
            %85 = affine.load %84[0] : memref<1xf32>
            scf.for %arg9 = %c0 to %c4 step %c1 {
              %87 = arith.index_cast %arg9 : index to i64
              %88 = memref.load %67[%arg8] : memref<192x!llvm.ptr<struct<(array<3012 x f32>)>>>
              %89 = llvm.getelementptr %88[%c0_i32, %c0_i32] : (!llvm.ptr<struct<(array<3012 x f32>)>>, i32, i32) -> !llvm.ptr<array<3012 x f32>>
              %90 = llvm.getelementptr %89[%c0_i32, %c0_i32] : (!llvm.ptr<array<3012 x f32>>, i32, i32) -> !llvm.ptr<f32>
              %91 = arith.muli %87, %c192_i64 : i64
              %92 = arith.addi %91, %c2212_i64 : i64
              %93 = memref.load %56[%arg8] : memref<192xi64>
              %94 = arith.addi %92, %93 : i64
              %95 = llvm.getelementptr %90[%94] : (!llvm.ptr<f32>, i64) -> !llvm.ptr<f32>
              %96 = llvm.load %95 : !llvm.ptr<f32>
              %97 = arith.addi %91, %c2213_i64 : i64
              %98 = memref.load %56[%arg8] : memref<192xi64>
              %99 = arith.addi %97, %98 : i64
              %100 = llvm.getelementptr %90[%99] : (!llvm.ptr<f32>, i64) -> !llvm.ptr<f32>
              %101 = llvm.load %100 : !llvm.ptr<f32>
              %102 = arith.addi %91, %c701_i64 : i64
              %103 = memref.load %56[%arg8] : memref<192xi64>
              %104 = arith.addi %102, %103 : i64
              %105 = llvm.getelementptr %90[%104] : (!llvm.ptr<f32>, i64) -> !llvm.ptr<f32>
              %106 = arith.addf %96, %101 : f32
              %107 = arith.mulf %85, %106 : f32
              %108 = llvm.getelementptr %105[%c0_i32] : (!llvm.ptr<f32>, i32) -> !llvm.ptr<f32>
              %109 = llvm.load %108 : !llvm.ptr<f32>
              %110 = arith.addf %109, %107 : f32
              llvm.store %110, %108 : !llvm.ptr<f32>
            }
            %86 = memref.load %83[%arg8] : memref<192xi1>
            scf.if %86 {
              %87 = memref.load %67[%arg8] : memref<192x!llvm.ptr<struct<(array<3012 x f32>)>>>
              %88 = llvm.getelementptr %87[%c0_i32, %c0_i32] : (!llvm.ptr<struct<(array<3012 x f32>)>>, i32, i32) -> !llvm.ptr<array<3012 x f32>>
              %89 = llvm.getelementptr %88[%c0_i32, %c0_i32] : (!llvm.ptr<array<3012 x f32>>, i32, i32) -> !llvm.ptr<f32>
              %90 = memref.load %56[%arg8] : memref<192xi64>
              %91 = arith.addi %90, %c2980_i64 : i64
              %92 = llvm.getelementptr %89[%91] : (!llvm.ptr<f32>, i64) -> !llvm.ptr<f32>
              %93 = llvm.load %92 : !llvm.ptr<f32>
              %94 = memref.load %56[%arg8] : memref<192xi64>
              %95 = arith.addi %94, %c2981_i64 : i64
              %96 = llvm.getelementptr %89[%95] : (!llvm.ptr<f32>, i64) -> !llvm.ptr<f32>
              %97 = llvm.load %96 : !llvm.ptr<f32>
              %98 = memref.load %56[%arg8] : memref<192xi64>
              %99 = arith.addi %98, %c1469_i64 : i64
              %100 = llvm.getelementptr %89[%99] : (!llvm.ptr<f32>, i64) -> !llvm.ptr<f32>
              %101 = arith.addf %93, %97 : f32
              %102 = arith.mulf %85, %101 : f32
              %103 = llvm.getelementptr %100[%c0_i32] : (!llvm.ptr<f32>, i32) -> !llvm.ptr<f32>
              %104 = llvm.load %103 : !llvm.ptr<f32>
              %105 = arith.addf %104, %102 : f32
              llvm.store %105, %103 : !llvm.ptr<f32>
            }
            scf.yield
          }
          scf.parallel (%arg8) = (%c0) to (%c192) step (%c1) {
            %84 = memref.load %76[%arg8] : memref<192xmemref<1xf32>>
            %85 = affine.load %84[0] : memref<1xf32>
            scf.for %arg9 = %c0 to %c4 step %c1 {
              %87 = arith.index_cast %arg9 : index to i64
              %88 = memref.load %67[%arg8] : memref<192x!llvm.ptr<struct<(array<3012 x f32>)>>>
              %89 = llvm.getelementptr %88[%c0_i32, %c0_i32] : (!llvm.ptr<struct<(array<3012 x f32>)>>, i32, i32) -> !llvm.ptr<array<3012 x f32>>
              %90 = llvm.getelementptr %89[%c0_i32, %c0_i32] : (!llvm.ptr<array<3012 x f32>>, i32, i32) -> !llvm.ptr<f32>
              %91 = arith.muli %87, %c192_i64 : i64
              %92 = arith.addi %91, %c700_i64 : i64
              %93 = memref.load %56[%arg8] : memref<192xi64>
              %94 = arith.addi %92, %93 : i64
              %95 = llvm.getelementptr %90[%94] : (!llvm.ptr<f32>, i64) -> !llvm.ptr<f32>
              %96 = llvm.load %95 : !llvm.ptr<f32>
              %97 = arith.addi %91, %c701_i64 : i64
              %98 = memref.load %56[%arg8] : memref<192xi64>
              %99 = arith.addi %97, %98 : i64
              %100 = llvm.getelementptr %90[%99] : (!llvm.ptr<f32>, i64) -> !llvm.ptr<f32>
              %101 = llvm.load %100 : !llvm.ptr<f32>
              %102 = arith.addi %91, %c2212_i64 : i64
              %103 = memref.load %56[%arg8] : memref<192xi64>
              %104 = arith.addi %102, %103 : i64
              %105 = llvm.getelementptr %90[%104] : (!llvm.ptr<f32>, i64) -> !llvm.ptr<f32>
              %106 = arith.addf %96, %101 : f32
              %107 = arith.mulf %85, %106 : f32
              %108 = llvm.getelementptr %105[%c0_i32] : (!llvm.ptr<f32>, i32) -> !llvm.ptr<f32>
              %109 = llvm.load %108 : !llvm.ptr<f32>
              %110 = arith.addf %109, %107 : f32
              llvm.store %110, %108 : !llvm.ptr<f32>
            }
            %86 = memref.load %83[%arg8] : memref<192xi1>
            scf.if %86 {
              %87 = memref.load %67[%arg8] : memref<192x!llvm.ptr<struct<(array<3012 x f32>)>>>
              %88 = llvm.getelementptr %87[%c0_i32, %c0_i32] : (!llvm.ptr<struct<(array<3012 x f32>)>>, i32, i32) -> !llvm.ptr<array<3012 x f32>>
              %89 = llvm.getelementptr %88[%c0_i32, %c0_i32] : (!llvm.ptr<array<3012 x f32>>, i32, i32) -> !llvm.ptr<f32>
              %90 = memref.load %56[%arg8] : memref<192xi64>
              %91 = arith.addi %90, %c1468_i64 : i64
              %92 = llvm.getelementptr %89[%91] : (!llvm.ptr<f32>, i64) -> !llvm.ptr<f32>
              %93 = llvm.load %92 : !llvm.ptr<f32>
              %94 = memref.load %56[%arg8] : memref<192xi64>
              %95 = arith.addi %94, %c1469_i64 : i64
              %96 = llvm.getelementptr %89[%95] : (!llvm.ptr<f32>, i64) -> !llvm.ptr<f32>
              %97 = llvm.load %96 : !llvm.ptr<f32>
              %98 = memref.load %56[%arg8] : memref<192xi64>
              %99 = arith.addi %98, %c2980_i64 : i64
              %100 = llvm.getelementptr %89[%99] : (!llvm.ptr<f32>, i64) -> !llvm.ptr<f32>
              %101 = arith.addf %93, %97 : f32
              %102 = arith.mulf %85, %101 : f32
              %103 = llvm.getelementptr %100[%c0_i32] : (!llvm.ptr<f32>, i32) -> !llvm.ptr<f32>
              %104 = llvm.load %103 : !llvm.ptr<f32>
              %105 = arith.addf %104, %102 : f32
              llvm.store %105, %103 : !llvm.ptr<f32>
            }
            scf.yield
          }
          scf.parallel (%arg8) = (%c0) to (%c192) step (%c1) {
            %84 = memref.load %77[%arg8] : memref<192xmemref<1xf32>>
            %85 = affine.load %84[0] : memref<1xf32>
            scf.for %arg9 = %c0 to %c4 step %c1 {
              %87 = arith.index_cast %arg9 : index to i64
              %88 = memref.load %67[%arg8] : memref<192x!llvm.ptr<struct<(array<3012 x f32>)>>>
              %89 = llvm.getelementptr %88[%c0_i32, %c0_i32] : (!llvm.ptr<struct<(array<3012 x f32>)>>, i32, i32) -> !llvm.ptr<array<3012 x f32>>
              %90 = llvm.getelementptr %89[%c0_i32, %c0_i32] : (!llvm.ptr<array<3012 x f32>>, i32, i32) -> !llvm.ptr<f32>
              %91 = arith.muli %87, %c192_i64 : i64
              %92 = arith.addi %91, %c2212_i64 : i64
              %93 = memref.load %56[%arg8] : memref<192xi64>
              %94 = arith.addi %92, %93 : i64
              %95 = llvm.getelementptr %90[%94] : (!llvm.ptr<f32>, i64) -> !llvm.ptr<f32>
              %96 = llvm.load %95 : !llvm.ptr<f32>
              %97 = arith.addi %91, %c2213_i64 : i64
              %98 = memref.load %56[%arg8] : memref<192xi64>
              %99 = arith.addi %97, %98 : i64
              %100 = llvm.getelementptr %90[%99] : (!llvm.ptr<f32>, i64) -> !llvm.ptr<f32>
              %101 = llvm.load %100 : !llvm.ptr<f32>
              %102 = arith.addi %91, %c701_i64 : i64
              %103 = memref.load %56[%arg8] : memref<192xi64>
              %104 = arith.addi %102, %103 : i64
              %105 = llvm.getelementptr %90[%104] : (!llvm.ptr<f32>, i64) -> !llvm.ptr<f32>
              %106 = arith.addf %96, %101 : f32
              %107 = arith.mulf %85, %106 : f32
              %108 = llvm.getelementptr %105[%c0_i32] : (!llvm.ptr<f32>, i32) -> !llvm.ptr<f32>
              %109 = llvm.load %108 : !llvm.ptr<f32>
              %110 = arith.addf %109, %107 : f32
              llvm.store %110, %108 : !llvm.ptr<f32>
            }
            %86 = memref.load %83[%arg8] : memref<192xi1>
            scf.if %86 {
              %87 = memref.load %67[%arg8] : memref<192x!llvm.ptr<struct<(array<3012 x f32>)>>>
              %88 = llvm.getelementptr %87[%c0_i32, %c0_i32] : (!llvm.ptr<struct<(array<3012 x f32>)>>, i32, i32) -> !llvm.ptr<array<3012 x f32>>
              %89 = llvm.getelementptr %88[%c0_i32, %c0_i32] : (!llvm.ptr<array<3012 x f32>>, i32, i32) -> !llvm.ptr<f32>
              %90 = memref.load %56[%arg8] : memref<192xi64>
              %91 = arith.addi %90, %c2980_i64 : i64
              %92 = llvm.getelementptr %89[%91] : (!llvm.ptr<f32>, i64) -> !llvm.ptr<f32>
              %93 = llvm.load %92 : !llvm.ptr<f32>
              %94 = memref.load %56[%arg8] : memref<192xi64>
              %95 = arith.addi %94, %c2981_i64 : i64
              %96 = llvm.getelementptr %89[%95] : (!llvm.ptr<f32>, i64) -> !llvm.ptr<f32>
              %97 = llvm.load %96 : !llvm.ptr<f32>
              %98 = memref.load %56[%arg8] : memref<192xi64>
              %99 = arith.addi %98, %c1469_i64 : i64
              %100 = llvm.getelementptr %89[%99] : (!llvm.ptr<f32>, i64) -> !llvm.ptr<f32>
              %101 = arith.addf %93, %97 : f32
              %102 = arith.mulf %85, %101 : f32
              %103 = llvm.getelementptr %100[%c0_i32] : (!llvm.ptr<f32>, i32) -> !llvm.ptr<f32>
              %104 = llvm.load %103 : !llvm.ptr<f32>
              %105 = arith.addf %104, %102 : f32
              llvm.store %105, %103 : !llvm.ptr<f32>
            }
            scf.yield
          }
          scf.parallel (%arg8) = (%c0) to (%c192) step (%c1) {
            %84 = memref.load %79[%arg8] : memref<192xmemref<1xf32>>
            %85 = affine.load %84[0] : memref<1xf32>
            %86 = memref.load %78[%arg8] : memref<192xmemref<1xf32>>
            %87 = affine.load %86[0] : memref<1xf32>
            scf.for %arg9 = %c0 to %c4 step %c1 {
              %90 = arith.index_cast %arg9 : index to i64
              %91 = memref.load %67[%arg8] : memref<192x!llvm.ptr<struct<(array<3012 x f32>)>>>
              %92 = llvm.getelementptr %91[%c0_i32, %c0_i32] : (!llvm.ptr<struct<(array<3012 x f32>)>>, i32, i32) -> !llvm.ptr<array<3012 x f32>>
              %93 = llvm.getelementptr %92[%c0_i32, %c0_i32] : (!llvm.ptr<array<3012 x f32>>, i32, i32) -> !llvm.ptr<f32>
              %94 = arith.muli %90, %c192_i64 : i64
              %95 = memref.load %56[%arg8] : memref<192xi64>
              %96 = arith.addi %95, %94 : i64
              %97 = arith.addi %96, %c700_i64 : i64
              %98 = llvm.getelementptr %93[%97] : (!llvm.ptr<f32>, i64) -> !llvm.ptr<f32>
              %99 = llvm.load %98 : !llvm.ptr<f32>
              %100 = arith.mulf %99, %85 : f32
              llvm.store %100, %98 : !llvm.ptr<f32>
              %101 = arith.addi %96, %c2212_i64 : i64
              %102 = llvm.getelementptr %93[%101] : (!llvm.ptr<f32>, i64) -> !llvm.ptr<f32>
              %103 = llvm.load %102 : !llvm.ptr<f32>
              %104 = arith.mulf %103, %87 : f32
              llvm.store %104, %102 : !llvm.ptr<f32>
            }
            %88 = memref.load %57[%arg8] : memref<192xi32>
            %89 = arith.cmpi ult, %88, %c32_i32 : i32
            scf.if %89 {
              %90 = memref.load %67[%arg8] : memref<192x!llvm.ptr<struct<(array<3012 x f32>)>>>
              %91 = llvm.getelementptr %90[%c0_i32, %c0_i32] : (!llvm.ptr<struct<(array<3012 x f32>)>>, i32, i32) -> !llvm.ptr<array<3012 x f32>>
              %92 = llvm.getelementptr %91[%c0_i32, %c0_i32] : (!llvm.ptr<array<3012 x f32>>, i32, i32) -> !llvm.ptr<f32>
              %93 = memref.load %56[%arg8] : memref<192xi64>
              %94 = arith.addi %93, %c1468_i64 : i64
              %95 = llvm.getelementptr %92[%94] : (!llvm.ptr<f32>, i64) -> !llvm.ptr<f32>
              %96 = llvm.load %95 : !llvm.ptr<f32>
              %97 = arith.mulf %96, %85 : f32
              llvm.store %97, %95 : !llvm.ptr<f32>
              %98 = memref.load %56[%arg8] : memref<192xi64>
              %99 = arith.addi %98, %c2980_i64 : i64
              %100 = llvm.getelementptr %92[%99] : (!llvm.ptr<f32>, i64) -> !llvm.ptr<f32>
              %101 = llvm.load %100 : !llvm.ptr<f32>
              %102 = arith.mulf %101, %87 : f32
              llvm.store %102, %100 : !llvm.ptr<f32>
            }
            scf.yield
          }
          scf.parallel (%arg8) = (%c0) to (%c192) step (%c1) {
            scf.for %arg9 = %c0 to %c7 step %c1 {
              %92 = arith.index_cast %arg9 : index to i64
              %93 = arith.addi %92, %c8_i64 : i64
              %94 = arith.muli %93, %c100_i64 : i64
              %95 = memref.load %67[%arg8] : memref<192x!llvm.ptr<struct<(array<3012 x f32>)>>>
              %96 = llvm.getelementptr %95[%c0_i32, %c0_i32] : (!llvm.ptr<struct<(array<3012 x f32>)>>, i32, i32) -> !llvm.ptr<array<3012 x f32>>
              %97 = llvm.getelementptr %96[%c0_i32, %c0_i32] : (!llvm.ptr<array<3012 x f32>>, i32, i32) -> !llvm.ptr<f32>
              %98 = memref.load %81[%arg8] : memref<192xi64>
              %99 = arith.addi %98, %94 : i64
              %100 = llvm.getelementptr %97[%99] : (!llvm.ptr<f32>, i64) -> !llvm.ptr<f32>
              %101 = llvm.getelementptr %100[%c0_i32] : (!llvm.ptr<f32>, i32) -> !llvm.ptr<f32>
              %102 = llvm.load %101 : !llvm.ptr<f32>
              memref.store %102, %72[%arg8, %arg9] : memref<192x7xf32>
            }
            %84 = memref.load %74[%arg8] : memref<192xmemref<1xf32>>
            %85 = affine.load %84[0] : memref<1xf32>
            scf.for %arg9 = %c0 to %c7 step %c1 {
              %92 = arith.index_cast %arg9 : index to i64
              %93 = arith.muli %92, %c2_i64 : i64
              %94 = arith.addi %93, %c1_i64 : i64
              %95 = memref.load %67[%arg8] : memref<192x!llvm.ptr<struct<(array<3012 x f32>)>>>
              %96 = llvm.getelementptr %95[%c0_i32, %c0_i32] : (!llvm.ptr<struct<(array<3012 x f32>)>>, i32, i32) -> !llvm.ptr<array<3012 x f32>>
              %97 = llvm.getelementptr %96[%c0_i32, %c0_i32] : (!llvm.ptr<array<3012 x f32>>, i32, i32) -> !llvm.ptr<f32>
              %98 = arith.muli %93, %c100_i64 : i64
              %99 = memref.load %81[%arg8] : memref<192xi64>
              %100 = arith.addi %99, %98 : i64
              %101 = llvm.getelementptr %97[%100] : (!llvm.ptr<f32>, i64) -> !llvm.ptr<f32>
              %102 = llvm.load %101 : !llvm.ptr<f32>
              %103 = arith.addi %93, %c2_i64 : i64
              %104 = arith.muli %103, %c100_i64 : i64
              %105 = memref.load %81[%arg8] : memref<192xi64>
              %106 = arith.addi %105, %104 : i64
              %107 = llvm.getelementptr %97[%106] : (!llvm.ptr<f32>, i64) -> !llvm.ptr<f32>
              %108 = llvm.load %107 : !llvm.ptr<f32>
              %109 = arith.muli %94, %c100_i64 : i64
              %110 = memref.load %81[%arg8] : memref<192xi64>
              %111 = arith.addi %110, %109 : i64
              %112 = llvm.getelementptr %97[%111] : (!llvm.ptr<f32>, i64) -> !llvm.ptr<f32>
              %113 = arith.addf %102, %108 : f32
              %114 = arith.mulf %85, %113 : f32
              %115 = llvm.getelementptr %112[%c0_i32] : (!llvm.ptr<f32>, i32) -> !llvm.ptr<f32>
              %116 = llvm.load %115 : !llvm.ptr<f32>
              %117 = arith.addf %116, %114 : f32
              llvm.store %117, %115 : !llvm.ptr<f32>
            }
            %86 = memref.load %75[%arg8] : memref<192xmemref<1xf32>>
            %87 = affine.load %86[0] : memref<1xf32>
            scf.for %arg9 = %c0 to %c6 step %c1 {
              %92 = arith.index_cast %arg9 : index to i64
              %93 = arith.muli %92, %c2_i64 : i64
              %94 = arith.addi %93, %c2_i64 : i64
              %95 = memref.load %67[%arg8] : memref<192x!llvm.ptr<struct<(array<3012 x f32>)>>>
              %96 = llvm.getelementptr %95[%c0_i32, %c0_i32] : (!llvm.ptr<struct<(array<3012 x f32>)>>, i32, i32) -> !llvm.ptr<array<3012 x f32>>
              %97 = llvm.getelementptr %96[%c0_i32, %c0_i32] : (!llvm.ptr<array<3012 x f32>>, i32, i32) -> !llvm.ptr<f32>
              %98 = arith.addi %93, %c1_i64 : i64
              %99 = arith.muli %98, %c100_i64 : i64
              %100 = memref.load %81[%arg8] : memref<192xi64>
              %101 = arith.addi %100, %99 : i64
              %102 = llvm.getelementptr %97[%101] : (!llvm.ptr<f32>, i64) -> !llvm.ptr<f32>
              %103 = llvm.load %102 : !llvm.ptr<f32>
              %104 = arith.addi %93, %c3_i64 : i64
              %105 = arith.muli %104, %c100_i64 : i64
              %106 = memref.load %81[%arg8] : memref<192xi64>
              %107 = arith.addi %106, %105 : i64
              %108 = llvm.getelementptr %97[%107] : (!llvm.ptr<f32>, i64) -> !llvm.ptr<f32>
              %109 = llvm.load %108 : !llvm.ptr<f32>
              %110 = arith.muli %94, %c100_i64 : i64
              %111 = memref.load %81[%arg8] : memref<192xi64>
              %112 = arith.addi %111, %110 : i64
              %113 = llvm.getelementptr %97[%112] : (!llvm.ptr<f32>, i64) -> !llvm.ptr<f32>
              %114 = arith.addf %103, %109 : f32
              %115 = arith.mulf %87, %114 : f32
              %116 = llvm.getelementptr %113[%c0_i32] : (!llvm.ptr<f32>, i32) -> !llvm.ptr<f32>
              %117 = llvm.load %116 : !llvm.ptr<f32>
              %118 = arith.addf %117, %115 : f32
              llvm.store %118, %116 : !llvm.ptr<f32>
            }
            %88 = memref.load %76[%arg8] : memref<192xmemref<1xf32>>
            %89 = affine.load %88[0] : memref<1xf32>
            scf.for %arg9 = %c0 to %c7 step %c1 {
              %92 = arith.index_cast %arg9 : index to i64
              %93 = arith.muli %92, %c2_i64 : i64
              %94 = arith.addi %93, %c1_i64 : i64
              %95 = memref.load %67[%arg8] : memref<192x!llvm.ptr<struct<(array<3012 x f32>)>>>
              %96 = llvm.getelementptr %95[%c0_i32, %c0_i32] : (!llvm.ptr<struct<(array<3012 x f32>)>>, i32, i32) -> !llvm.ptr<array<3012 x f32>>
              %97 = llvm.getelementptr %96[%c0_i32, %c0_i32] : (!llvm.ptr<array<3012 x f32>>, i32, i32) -> !llvm.ptr<f32>
              %98 = arith.muli %93, %c100_i64 : i64
              %99 = memref.load %81[%arg8] : memref<192xi64>
              %100 = arith.addi %99, %98 : i64
              %101 = llvm.getelementptr %97[%100] : (!llvm.ptr<f32>, i64) -> !llvm.ptr<f32>
              %102 = llvm.load %101 : !llvm.ptr<f32>
              %103 = arith.addi %93, %c2_i64 : i64
              %104 = arith.muli %103, %c100_i64 : i64
              %105 = memref.load %81[%arg8] : memref<192xi64>
              %106 = arith.addi %105, %104 : i64
              %107 = llvm.getelementptr %97[%106] : (!llvm.ptr<f32>, i64) -> !llvm.ptr<f32>
              %108 = llvm.load %107 : !llvm.ptr<f32>
              %109 = arith.muli %94, %c100_i64 : i64
              %110 = memref.load %81[%arg8] : memref<192xi64>
              %111 = arith.addi %110, %109 : i64
              %112 = llvm.getelementptr %97[%111] : (!llvm.ptr<f32>, i64) -> !llvm.ptr<f32>
              %113 = arith.addf %102, %108 : f32
              %114 = arith.mulf %89, %113 : f32
              %115 = llvm.getelementptr %112[%c0_i32] : (!llvm.ptr<f32>, i32) -> !llvm.ptr<f32>
              %116 = llvm.load %115 : !llvm.ptr<f32>
              %117 = arith.addf %116, %114 : f32
              llvm.store %117, %115 : !llvm.ptr<f32>
            }
            %90 = memref.load %77[%arg8] : memref<192xmemref<1xf32>>
            %91 = affine.load %90[0] : memref<1xf32>
            scf.for %arg9 = %c0 to %c6 step %c1 {
              %92 = arith.index_cast %arg9 : index to i64
              %93 = arith.muli %92, %c2_i64 : i64
              %94 = arith.addi %93, %c2_i64 : i64
              %95 = memref.load %67[%arg8] : memref<192x!llvm.ptr<struct<(array<3012 x f32>)>>>
              %96 = llvm.getelementptr %95[%c0_i32, %c0_i32] : (!llvm.ptr<struct<(array<3012 x f32>)>>, i32, i32) -> !llvm.ptr<array<3012 x f32>>
              %97 = llvm.getelementptr %96[%c0_i32, %c0_i32] : (!llvm.ptr<array<3012 x f32>>, i32, i32) -> !llvm.ptr<f32>
              %98 = arith.addi %93, %c1_i64 : i64
              %99 = arith.muli %98, %c100_i64 : i64
              %100 = memref.load %81[%arg8] : memref<192xi64>
              %101 = arith.addi %100, %99 : i64
              %102 = llvm.getelementptr %97[%101] : (!llvm.ptr<f32>, i64) -> !llvm.ptr<f32>
              %103 = llvm.load %102 : !llvm.ptr<f32>
              %104 = arith.addi %93, %c3_i64 : i64
              %105 = arith.muli %104, %c100_i64 : i64
              %106 = memref.load %81[%arg8] : memref<192xi64>
              %107 = arith.addi %106, %105 : i64
              %108 = llvm.getelementptr %97[%107] : (!llvm.ptr<f32>, i64) -> !llvm.ptr<f32>
              %109 = llvm.load %108 : !llvm.ptr<f32>
              %110 = arith.muli %94, %c100_i64 : i64
              %111 = memref.load %81[%arg8] : memref<192xi64>
              %112 = arith.addi %111, %110 : i64
              %113 = llvm.getelementptr %97[%112] : (!llvm.ptr<f32>, i64) -> !llvm.ptr<f32>
              %114 = arith.addf %103, %109 : f32
              %115 = arith.mulf %91, %114 : f32
              %116 = llvm.getelementptr %113[%c0_i32] : (!llvm.ptr<f32>, i32) -> !llvm.ptr<f32>
              %117 = llvm.load %116 : !llvm.ptr<f32>
              %118 = arith.addf %117, %115 : f32
              llvm.store %118, %116 : !llvm.ptr<f32>
            }
            scf.for %arg9 = %c4 to %c12 step %c2 {
              %92 = arith.index_cast %arg9 : index to i64
              %93 = arith.muli %92, %c100_i64 : i64
              %94 = memref.load %81[%arg8] : memref<192xi64>
              %95 = arith.addi %94, %93 : i64
              %96 = memref.load %67[%arg8] : memref<192x!llvm.ptr<struct<(array<3012 x f32>)>>>
              %97 = llvm.getelementptr %96[%c0_i32, %c0_i32] : (!llvm.ptr<struct<(array<3012 x f32>)>>, i32, i32) -> !llvm.ptr<array<3012 x f32>>
              %98 = llvm.getelementptr %97[%c0_i32, %c0_i32] : (!llvm.ptr<array<3012 x f32>>, i32, i32) -> !llvm.ptr<f32>
              %99 = llvm.getelementptr %98[%95] : (!llvm.ptr<f32>, i64) -> !llvm.ptr<f32>
              %100 = llvm.getelementptr %99[%c0_i32] : (!llvm.ptr<f32>, i32) -> !llvm.ptr<f32>
              %101 = llvm.load %100 : !llvm.ptr<f32>
              %102 = memref.load %79[%arg8] : memref<192xmemref<1xf32>>
              %103 = affine.load %102[0] : memref<1xf32>
              %104 = arith.mulf %101, %103 : f32
              %105 = memref.load %71[%arg8] : memref<192x!llvm.ptr<struct<(struct<(i32, i32, i32)>, i32)>>>
              %106 = llvm.bitcast %105 : !llvm.ptr<struct<(struct<(i32, i32, i32)>, i32)>> to !llvm.ptr<struct<(i32, i32, i32)>>
              %107 = llvm.getelementptr %106[%c0_i32, %c2_i32] : (!llvm.ptr<struct<(i32, i32, i32)>>, i32, i32) -> !llvm.ptr<i32>
              %108 = memref.load %71[%arg8] : memref<192x!llvm.ptr<struct<(struct<(i32, i32, i32)>, i32)>>>
              %109 = llvm.getelementptr %108[%c0_i32, %c1_i32] : (!llvm.ptr<struct<(struct<(i32, i32, i32)>, i32)>>, i32, i32) -> !llvm.ptr<i32>
              %110 = llvm.load %109 : !llvm.ptr<i32>
              %111 = llvm.getelementptr %106[%c0_i32, %c0_i32] : (!llvm.ptr<struct<(i32, i32, i32)>>, i32, i32) -> !llvm.ptr<i32>
              %112 = llvm.load %111 : !llvm.ptr<i32>
              %113 = arith.cmpi ne, %110, %112 : i32
              scf.if %113 {
                %127 = llvm.load %109 : !llvm.ptr<i32>
                %128 = arith.index_cast %127 : i32 to index
                memref.store %104, %arg1[%128] : memref<?xf32>
                %129 = llvm.getelementptr %107[%c0_i32] : (!llvm.ptr<i32>, i32) -> !llvm.ptr<i32>
                %130 = llvm.load %129 : !llvm.ptr<i32>
                %131 = llvm.load %109 : !llvm.ptr<i32>
                %132 = arith.addi %131, %130 : i32
                llvm.store %132, %109 : !llvm.ptr<i32>
              }
              %114 = llvm.load %109 : !llvm.ptr<i32>
              %115 = arith.addi %95, %c100_i64 : i64
              %116 = llvm.getelementptr %98[%115] : (!llvm.ptr<f32>, i64) -> !llvm.ptr<f32>
              %117 = llvm.getelementptr %116[%c0_i32] : (!llvm.ptr<f32>, i32) -> !llvm.ptr<f32>
              %118 = llvm.load %117 : !llvm.ptr<f32>
              %119 = memref.load %78[%arg8] : memref<192xmemref<1xf32>>
              %120 = affine.load %119[0] : memref<1xf32>
              %121 = arith.mulf %118, %120 : f32
              %122 = llvm.getelementptr %106[%c0_i32, %c1_i32] : (!llvm.ptr<struct<(i32, i32, i32)>>, i32, i32) -> !llvm.ptr<i32>
              %123 = llvm.load %109 : !llvm.ptr<i32>
              %124 = llvm.load %111 : !llvm.ptr<i32>
              %125 = arith.cmpi ne, %123, %124 : i32
              scf.if %125 {
                %127 = llvm.load %109 : !llvm.ptr<i32>
                %128 = arith.index_cast %127 : i32 to index
                memref.store %121, %arg1[%128] : memref<?xf32>
                %129 = llvm.getelementptr %122[%c0_i32] : (!llvm.ptr<i32>, i32) -> !llvm.ptr<i32>
                %130 = llvm.load %129 : !llvm.ptr<i32>
                %131 = llvm.load %109 : !llvm.ptr<i32>
                %132 = arith.addi %131, %130 : i32
                llvm.store %132, %109 : !llvm.ptr<i32>
              }
              %126 = llvm.load %109 : !llvm.ptr<i32>
            }
            scf.for %arg9 = %c0 to %c7 step %c1 {
              %92 = arith.index_cast %arg9 : index to i64
              %93 = arith.muli %92, %c100_i64 : i64
              %94 = memref.load %67[%arg8] : memref<192x!llvm.ptr<struct<(array<3012 x f32>)>>>
              %95 = llvm.getelementptr %94[%c0_i32, %c0_i32] : (!llvm.ptr<struct<(array<3012 x f32>)>>, i32, i32) -> !llvm.ptr<array<3012 x f32>>
              %96 = llvm.getelementptr %95[%c0_i32, %c0_i32] : (!llvm.ptr<array<3012 x f32>>, i32, i32) -> !llvm.ptr<f32>
              %97 = memref.load %81[%arg8] : memref<192xi64>
              %98 = arith.addi %97, %93 : i64
              %99 = llvm.getelementptr %96[%98] : (!llvm.ptr<f32>, i64) -> !llvm.ptr<f32>
              %100 = memref.load %72[%arg8, %arg9] : memref<192x7xf32>
              %101 = llvm.getelementptr %99[%c0_i32] : (!llvm.ptr<f32>, i32) -> !llvm.ptr<f32>
              llvm.store %100, %101 : !llvm.ptr<f32>
            }
            scf.yield
          }
          memref.dealloc %83 : memref<192xi1>
        }
        memref.dealloc %80 : memref<192xindex>
        memref.dealloc %81 : memref<192xi64>
        memref.dealloc %78 : memref<192xmemref<1xf32>>
        memref.dealloc %79 : memref<192xmemref<1xf32>>
        memref.dealloc %77 : memref<192xmemref<1xf32>>
        memref.dealloc %76 : memref<192xmemref<1xf32>>
        memref.dealloc %75 : memref<192xmemref<1xf32>>
        memref.dealloc %73 : memref<192xi1>
        memref.dealloc %74 : memref<192xmemref<1xf32>>
        memref.dealloc %61 : memref<192xi1>
        memref.dealloc %62 : memref<192x!llvm.ptr<i32>>
        memref.dealloc %63 : memref<192x!llvm.ptr<i32>>
        memref.dealloc %64 : memref<192x!llvm.ptr<i32>>
        memref.dealloc %65 : memref<192x!llvm.ptr<i32>>
        memref.dealloc %66 : memref<192xi32>
        memref.dealloc %67 : memref<192x!llvm.ptr<struct<(array<3012 x f32>)>>>
        memref.dealloc %68 : memref<192x!llvm.ptr<i32>>
        memref.dealloc %69 : memref<192xi32>
        memref.dealloc %70 : memref<192x!llvm.ptr<struct<(struct<(struct<(i32, i32)>, i32)>, i32)>>>
        memref.dealloc %71 : memref<192x!llvm.ptr<struct<(struct<(i32, i32, i32)>, i32)>>>
        memref.dealloc %72 : memref<192x7xf32>
      }
      %59 = memref.alloc() : memref<192xindex>
      scf.parallel (%arg6) = (%c0) to (%c192) step (%c1) {
        %61 = memref.load %54[%arg6] : memref<192xindex>
        %62 = arith.subi %c1, %61 : index
        memref.store %62, %59[%arg6] : memref<192xindex>
        scf.yield
      }
      %60 = memref.load %59[%c0] : memref<192xindex>
      scf.for %arg6 = %c0 to %60 step %c1 {
        %61 = memref.alloc() : memref<192xindex>
        scf.parallel (%arg7) = (%c0) to (%c192) step (%c1) {
          %65 = memref.load %55[%arg7] : memref<192xi1>
          %66 = arith.extui %65 : i1 to i64
          %67 = arith.index_cast %66 : i64 to index
          memref.store %67, %61[%arg7] : memref<192xindex>
          scf.yield
        }
        %62 = memref.load %61[%c0] : memref<192xindex>
        scf.for %arg7 = %c0 to %62 step %c1 {
          %65 = memref.alloc() : memref<192xi1>
          %66 = memref.alloc() : memref<192x!llvm.ptr<i32>>
          %67 = memref.alloc() : memref<192x!llvm.ptr<i32>>
          %68 = memref.alloc() : memref<192x!llvm.ptr<i32>>
          %69 = memref.alloc() : memref<192xi32>
          %70 = memref.alloc() : memref<192x!llvm.ptr<struct<(array<3012 x f32>)>>>
          %71 = memref.alloc() : memref<192x!llvm.ptr<i32>>
          %72 = memref.alloc() : memref<192xi32>
          %73 = memref.alloc() : memref<192x!llvm.ptr<struct<(struct<(struct<(i32, i32)>, i32)>, i32)>>>
          %74 = memref.alloc() : memref<192x!llvm.ptr<struct<(struct<(i32, i32, i32)>, i32)>>>
          %75 = memref.alloc() : memref<192x7xf32>
          scf.parallel (%arg8) = (%c0) to (%c192) step (%c1) {
            %86 = llvm.addrspacecast %53 : !llvm.ptr<struct<(struct<(array<3012 x f32>)>)>, 5> to !llvm.ptr<struct<(struct<(array<3012 x f32>)>)>>
            %87 = llvm.alloca %c1_i64 x !llvm.struct<(struct<(i32, i32, i32)>, i32)> : (i64) -> !llvm.ptr<struct<(struct<(i32, i32, i32)>, i32)>>
            memref.store %87, %74[%arg8] : memref<192x!llvm.ptr<struct<(struct<(i32, i32, i32)>, i32)>>>
            %88 = llvm.alloca %c1_i64 x !llvm.struct<(struct<(struct<(i32, i32)>, i32)>, i32)> : (i64) -> !llvm.ptr<struct<(struct<(struct<(i32, i32)>, i32)>, i32)>>
            %89 = llvm.alloca %c1_i64 x !llvm.struct<(struct<(struct<(i32, i32)>, i32)>, i32)> : (i64) -> !llvm.ptr<struct<(struct<(struct<(i32, i32)>, i32)>, i32)>>
            memref.store %89, %73[%arg8] : memref<192x!llvm.ptr<struct<(struct<(struct<(i32, i32)>, i32)>, i32)>>>
            %90 = arith.muli %51, %c8_i32 : i32
            %91 = arith.muli %90, %9 : i32
            memref.store %91, %72[%arg8] : memref<192xi32>
            %92 = llvm.getelementptr %89[%c0_i32, %c1_i32] : (!llvm.ptr<struct<(struct<(struct<(i32, i32)>, i32)>, i32)>>, i32, i32) -> !llvm.ptr<i32>
            memref.store %92, %71[%arg8] : memref<192x!llvm.ptr<i32>>
            %93 = llvm.getelementptr %86[%c0_i32, %c0_i32] : (!llvm.ptr<struct<(struct<(array<3012 x f32>)>)>>, i32, i32) -> !llvm.ptr<struct<(array<3012 x f32>)>>
            memref.store %93, %70[%arg8] : memref<192x!llvm.ptr<struct<(array<3012 x f32>)>>>
            %94 = memref.load %57[%arg8] : memref<192xi32>
            %95 = arith.addi %94, %c4_i32 : i32
            %96 = arith.divsi %95, %c2_i32 : i32
            %97 = arith.andi %95, %c1_i32 : i32
            %98 = arith.muli %97, %c1512_i32 : i32
            %99 = arith.addi %96, %98 : i32
            llvm.store %99, %92 : !llvm.ptr<i32>
            %100 = arith.muli %50, %c192_i32 : i32
            memref.store %100, %69[%arg8] : memref<192xi32>
            %101 = memref.load %57[%arg8] : memref<192xi32>
            %102 = arith.addi %100, %101 : i32
            %103 = arith.cmpi eq, %51, %c0_i32 : i32
            scf.if %103 {
              %112 = llvm.getelementptr %89[%c0_i32, %c0_i32] : (!llvm.ptr<struct<(struct<(struct<(i32, i32)>, i32)>, i32)>>, i32, i32) -> !llvm.ptr<struct<(struct<(i32, i32)>, i32)>>
              %113 = arith.cmpi uge, %102, %arg2 : i32
              %114 = scf.if %113 -> (i32) {
                %202 = arith.muli %arg2, %c2_i32 : i32
                %203 = arith.addi %202, %c-2_i32 : i32
                %204 = arith.subi %203, %102 : i32
                scf.yield %204 : i32
              } else {
                %202 = arith.cmpi ult, %102, %c0_i32 : i32
                %203 = scf.if %202 -> (i32) {
                  %204 = arith.subi %c0_i32, %102 : i32
                  scf.yield %204 : i32
                } else {
                  scf.yield %102 : i32
                }
                scf.yield %203 : i32
              }
              %115 = llvm.getelementptr %112[%c0_i32, %c1_i32] : (!llvm.ptr<struct<(struct<(i32, i32)>, i32)>>, i32, i32) -> !llvm.ptr<i32>
              %116 = llvm.bitcast %112 : !llvm.ptr<struct<(struct<(i32, i32)>, i32)>> to !llvm.ptr<struct<(i32, i32)>>
              %117 = llvm.getelementptr %116[%c0_i32, %c0_i32] : (!llvm.ptr<struct<(i32, i32)>>, i32, i32) -> !llvm.ptr<i32>
              llvm.store %c0_i32, %117 : !llvm.ptr<i32>
              %118 = llvm.getelementptr %116[%c0_i32, %c1_i32] : (!llvm.ptr<struct<(i32, i32)>>, i32, i32) -> !llvm.ptr<i32>
              llvm.store %arg2, %118 : !llvm.ptr<i32>
              %119 = arith.muli %arg2, %91 : i32
              %120 = arith.addi %114, %119 : i32
              %121 = arith.subi %120, %arg2 : i32
              llvm.store %121, %115 : !llvm.ptr<i32>
              %122 = llvm.load %92 : !llvm.ptr<i32>
              %123 = arith.index_cast %122 : i32 to index
              %124 = arith.index_cast %123 : index to i64
              %125 = llvm.getelementptr %93[%c0_i32, %c0_i32] : (!llvm.ptr<struct<(array<3012 x f32>)>>, i32, i32) -> !llvm.ptr<array<3012 x f32>>
              %126 = llvm.getelementptr %125[%c0_i32, %c0_i32] : (!llvm.ptr<array<3012 x f32>>, i32, i32) -> !llvm.ptr<f32>
              %127 = arith.addi %124, %c400_i64 : i64
              %128 = llvm.getelementptr %126[%127] : (!llvm.ptr<f32>, i64) -> !llvm.ptr<f32>
              %129 = llvm.load %118 : !llvm.ptr<i32>
              %130 = llvm.load %115 : !llvm.ptr<i32>
              %131 = arith.addi %130, %129 : i32
              llvm.store %131, %115 : !llvm.ptr<i32>
              %132 = llvm.load %115 : !llvm.ptr<i32>
              %133 = arith.index_cast %132 : i32 to index
              %134 = memref.load %arg0[%133] : memref<?xf32>
              %135 = llvm.getelementptr %128[%c0_i32] : (!llvm.ptr<f32>, i32) -> !llvm.ptr<f32>
              llvm.store %134, %135 : !llvm.ptr<f32>
              %136 = llvm.load %92 : !llvm.ptr<i32>
              %137 = arith.index_cast %136 : i32 to index
              %138 = arith.index_cast %137 : index to i64
              %139 = arith.addi %138, %c300_i64 : i64
              %140 = llvm.getelementptr %126[%139] : (!llvm.ptr<f32>, i64) -> !llvm.ptr<f32>
              %141 = llvm.load %92 : !llvm.ptr<i32>
              %142 = arith.index_cast %141 : i32 to index
              %143 = arith.index_cast %142 : index to i64
              %144 = arith.addi %143, %c500_i64 : i64
              %145 = llvm.getelementptr %126[%144] : (!llvm.ptr<f32>, i64) -> !llvm.ptr<f32>
              %146 = llvm.load %118 : !llvm.ptr<i32>
              %147 = llvm.load %115 : !llvm.ptr<i32>
              %148 = arith.addi %147, %146 : i32
              llvm.store %148, %115 : !llvm.ptr<i32>
              %149 = llvm.load %115 : !llvm.ptr<i32>
              %150 = arith.index_cast %149 : i32 to index
              %151 = memref.load %arg0[%150] : memref<?xf32>
              %152 = llvm.getelementptr %145[%c0_i32] : (!llvm.ptr<f32>, i32) -> !llvm.ptr<f32>
              llvm.store %151, %152 : !llvm.ptr<f32>
              %153 = llvm.load %152 : !llvm.ptr<f32>
              %154 = llvm.getelementptr %140[%c0_i32] : (!llvm.ptr<f32>, i32) -> !llvm.ptr<f32>
              llvm.store %153, %154 : !llvm.ptr<f32>
              %155 = llvm.load %92 : !llvm.ptr<i32>
              %156 = arith.index_cast %155 : i32 to index
              %157 = arith.index_cast %156 : index to i64
              %158 = arith.addi %157, %c200_i64 : i64
              %159 = llvm.getelementptr %126[%158] : (!llvm.ptr<f32>, i64) -> !llvm.ptr<f32>
              %160 = llvm.load %92 : !llvm.ptr<i32>
              %161 = arith.index_cast %160 : i32 to index
              %162 = arith.index_cast %161 : index to i64
              %163 = arith.addi %162, %c600_i64 : i64
              %164 = llvm.getelementptr %126[%163] : (!llvm.ptr<f32>, i64) -> !llvm.ptr<f32>
              %165 = llvm.load %118 : !llvm.ptr<i32>
              %166 = llvm.load %115 : !llvm.ptr<i32>
              %167 = arith.addi %166, %165 : i32
              llvm.store %167, %115 : !llvm.ptr<i32>
              %168 = llvm.load %115 : !llvm.ptr<i32>
              %169 = arith.index_cast %168 : i32 to index
              %170 = memref.load %arg0[%169] : memref<?xf32>
              %171 = llvm.getelementptr %164[%c0_i32] : (!llvm.ptr<f32>, i32) -> !llvm.ptr<f32>
              llvm.store %170, %171 : !llvm.ptr<f32>
              %172 = llvm.load %171 : !llvm.ptr<f32>
              %173 = llvm.getelementptr %159[%c0_i32] : (!llvm.ptr<f32>, i32) -> !llvm.ptr<f32>
              llvm.store %172, %173 : !llvm.ptr<f32>
              %174 = llvm.load %92 : !llvm.ptr<i32>
              %175 = arith.index_cast %174 : i32 to index
              %176 = arith.index_cast %175 : index to i64
              %177 = arith.addi %176, %c100_i64 : i64
              %178 = llvm.getelementptr %126[%177] : (!llvm.ptr<f32>, i64) -> !llvm.ptr<f32>
              %179 = llvm.load %118 : !llvm.ptr<i32>
              %180 = llvm.load %115 : !llvm.ptr<i32>
              %181 = arith.addi %180, %179 : i32
              llvm.store %181, %115 : !llvm.ptr<i32>
              %182 = llvm.load %115 : !llvm.ptr<i32>
              %183 = arith.index_cast %182 : i32 to index
              %184 = memref.load %arg0[%183] : memref<?xf32>
              %185 = llvm.getelementptr %178[%c0_i32] : (!llvm.ptr<f32>, i32) -> !llvm.ptr<f32>
              llvm.store %184, %185 : !llvm.ptr<f32>
              %186 = llvm.load %92 : !llvm.ptr<i32>
              %187 = arith.index_cast %186 : i32 to index
              %188 = arith.index_cast %187 : index to i64
              %189 = llvm.getelementptr %126[%188] : (!llvm.ptr<f32>, i64) -> !llvm.ptr<f32>
              %190 = llvm.load %118 : !llvm.ptr<i32>
              %191 = llvm.load %115 : !llvm.ptr<i32>
              %192 = arith.addi %191, %190 : i32
              llvm.store %192, %115 : !llvm.ptr<i32>
              %193 = llvm.load %115 : !llvm.ptr<i32>
              %194 = arith.index_cast %193 : i32 to index
              %195 = memref.load %arg0[%194] : memref<?xf32>
              %196 = llvm.getelementptr %189[%c0_i32] : (!llvm.ptr<f32>, i32) -> !llvm.ptr<f32>
              llvm.store %195, %196 : !llvm.ptr<f32>
              %197 = arith.addi %91, %c3_i32 : i32
              %198 = scf.if %113 -> (i32) {
                %202 = arith.muli %arg2, %c2_i32 : i32
                %203 = arith.addi %202, %c-2_i32 : i32
                %204 = arith.subi %203, %102 : i32
                scf.yield %204 : i32
              } else {
                %202 = arith.cmpi ult, %102, %c0_i32 : i32
                %203 = scf.if %202 -> (i32) {
                  %204 = arith.subi %c0_i32, %102 : i32
                  scf.yield %204 : i32
                } else {
                  scf.yield %102 : i32
                }
                scf.yield %203 : i32
              }
              llvm.store %c0_i32, %117 : !llvm.ptr<i32>
              llvm.store %arg2, %118 : !llvm.ptr<i32>
              %199 = arith.muli %arg2, %197 : i32
              %200 = arith.addi %198, %199 : i32
              %201 = arith.subi %200, %arg2 : i32
              llvm.store %201, %115 : !llvm.ptr<i32>
            } else {
              %112 = llvm.getelementptr %89[%c0_i32, %c0_i32] : (!llvm.ptr<struct<(struct<(struct<(i32, i32)>, i32)>, i32)>>, i32, i32) -> !llvm.ptr<struct<(struct<(i32, i32)>, i32)>>
              %113 = arith.addi %91, %c-4_i32 : i32
              %114 = arith.cmpi uge, %102, %arg2 : i32
              %115 = scf.if %114 -> (i32) {
                %123 = arith.muli %arg2, %c2_i32 : i32
                %124 = arith.addi %123, %c-2_i32 : i32
                %125 = arith.subi %124, %102 : i32
                scf.yield %125 : i32
              } else {
                %123 = arith.cmpi ult, %102, %c0_i32 : i32
                %124 = scf.if %123 -> (i32) {
                  %125 = arith.subi %c0_i32, %102 : i32
                  scf.yield %125 : i32
                } else {
                  scf.yield %102 : i32
                }
                scf.yield %124 : i32
              }
              %116 = llvm.getelementptr %112[%c0_i32, %c1_i32] : (!llvm.ptr<struct<(struct<(i32, i32)>, i32)>>, i32, i32) -> !llvm.ptr<i32>
              %117 = llvm.bitcast %112 : !llvm.ptr<struct<(struct<(i32, i32)>, i32)>> to !llvm.ptr<struct<(i32, i32)>>
              %118 = llvm.getelementptr %117[%c0_i32, %c0_i32] : (!llvm.ptr<struct<(i32, i32)>>, i32, i32) -> !llvm.ptr<i32>
              llvm.store %c0_i32, %118 : !llvm.ptr<i32>
              %119 = llvm.getelementptr %117[%c0_i32, %c1_i32] : (!llvm.ptr<struct<(i32, i32)>>, i32, i32) -> !llvm.ptr<i32>
              llvm.store %arg2, %119 : !llvm.ptr<i32>
              %120 = arith.muli %arg2, %113 : i32
              %121 = arith.addi %115, %120 : i32
              %122 = arith.subi %121, %arg2 : i32
              llvm.store %122, %116 : !llvm.ptr<i32>
              scf.for %arg9 = %c0 to %c7 step %c1 {
                %123 = arith.index_cast %arg9 : index to i64
                %124 = llvm.load %92 : !llvm.ptr<i32>
                %125 = arith.index_cast %124 : i32 to index
                %126 = arith.index_cast %125 : index to i64
                %127 = arith.muli %123, %c100_i64 : i64
                %128 = llvm.getelementptr %93[%c0_i32, %c0_i32] : (!llvm.ptr<struct<(array<3012 x f32>)>>, i32, i32) -> !llvm.ptr<array<3012 x f32>>
                %129 = llvm.getelementptr %128[%c0_i32, %c0_i32] : (!llvm.ptr<array<3012 x f32>>, i32, i32) -> !llvm.ptr<f32>
                %130 = arith.addi %126, %127 : i64
                %131 = llvm.getelementptr %129[%130] : (!llvm.ptr<f32>, i64) -> !llvm.ptr<f32>
                %132 = llvm.load %119 : !llvm.ptr<i32>
                %133 = llvm.load %116 : !llvm.ptr<i32>
                %134 = arith.addi %133, %132 : i32
                llvm.store %134, %116 : !llvm.ptr<i32>
                %135 = llvm.load %116 : !llvm.ptr<i32>
                %136 = arith.index_cast %135 : i32 to index
                %137 = memref.load %arg0[%136] : memref<?xf32>
                %138 = llvm.getelementptr %131[%c0_i32] : (!llvm.ptr<f32>, i32) -> !llvm.ptr<f32>
                llvm.store %137, %138 : !llvm.ptr<f32>
              }
            }
            %104 = llvm.getelementptr %88[%c0_i32, %c1_i32] : (!llvm.ptr<struct<(struct<(struct<(i32, i32)>, i32)>, i32)>>, i32, i32) -> !llvm.ptr<i32>
            memref.store %104, %68[%arg8] : memref<192x!llvm.ptr<i32>>
            llvm.store %c0_i32, %104 : !llvm.ptr<i32>
            %105 = llvm.getelementptr %88[%c0_i32, %c0_i32] : (!llvm.ptr<struct<(struct<(struct<(i32, i32)>, i32)>, i32)>>, i32, i32) -> !llvm.ptr<struct<(struct<(i32, i32)>, i32)>>
            %106 = llvm.bitcast %105 : !llvm.ptr<struct<(struct<(i32, i32)>, i32)>> to !llvm.ptr<struct<(i32, i32)>>
            %107 = llvm.getelementptr %106[%c0_i32, %c0_i32] : (!llvm.ptr<struct<(i32, i32)>>, i32, i32) -> !llvm.ptr<i32>
            llvm.store %c0_i32, %107 : !llvm.ptr<i32>
            %108 = llvm.getelementptr %106[%c0_i32, %c1_i32] : (!llvm.ptr<struct<(i32, i32)>>, i32, i32) -> !llvm.ptr<i32>
            memref.store %108, %67[%arg8] : memref<192x!llvm.ptr<i32>>
            llvm.store %c0_i32, %108 : !llvm.ptr<i32>
            %109 = llvm.getelementptr %105[%c0_i32, %c1_i32] : (!llvm.ptr<struct<(struct<(i32, i32)>, i32)>>, i32, i32) -> !llvm.ptr<i32>
            memref.store %109, %66[%arg8] : memref<192x!llvm.ptr<i32>>
            llvm.store %c0_i32, %109 : !llvm.ptr<i32>
            %110 = memref.load %57[%arg8] : memref<192xi32>
            %111 = arith.cmpi ult, %110, %c7_i32 : i32
            memref.store %111, %65[%arg8] : memref<192xi1>
            scf.if %111 {
              %112 = memref.load %57[%arg8] : memref<192xi32>
              %113 = arith.cmpi ult, %112, %c3_i32 : i32
              %114 = select %113, %c192_i32, %c-7_i32 : i32
              %115 = memref.load %57[%arg8] : memref<192xi32>
              %116 = arith.addi %115, %114 : i32
              %117 = arith.addi %116, %c4_i32 : i32
              %118 = arith.divsi %117, %c2_i32 : i32
              %119 = arith.andi %117, %c1_i32 : i32
              %120 = arith.muli %119, %c1512_i32 : i32
              %121 = arith.addi %118, %120 : i32
              llvm.store %121, %104 : !llvm.ptr<i32>
              %122 = arith.addi %100, %116 : i32
              scf.if %103 {
                %123 = arith.cmpi uge, %122, %arg2 : i32
                %124 = scf.if %123 -> (i32) {
                  %208 = arith.muli %arg2, %c2_i32 : i32
                  %209 = arith.addi %208, %c-2_i32 : i32
                  %210 = arith.subi %209, %122 : i32
                  scf.yield %210 : i32
                } else {
                  %208 = arith.cmpi ult, %122, %c0_i32 : i32
                  %209 = scf.if %208 -> (i32) {
                    %210 = arith.subi %c0_i32, %122 : i32
                    scf.yield %210 : i32
                  } else {
                    scf.yield %122 : i32
                  }
                  scf.yield %209 : i32
                }
                llvm.store %c0_i32, %107 : !llvm.ptr<i32>
                llvm.store %arg2, %108 : !llvm.ptr<i32>
                %125 = arith.muli %arg2, %91 : i32
                %126 = arith.addi %124, %125 : i32
                %127 = arith.subi %126, %arg2 : i32
                llvm.store %127, %109 : !llvm.ptr<i32>
                %128 = llvm.load %104 : !llvm.ptr<i32>
                %129 = arith.index_cast %128 : i32 to index
                %130 = arith.index_cast %129 : index to i64
                %131 = llvm.getelementptr %93[%c0_i32, %c0_i32] : (!llvm.ptr<struct<(array<3012 x f32>)>>, i32, i32) -> !llvm.ptr<array<3012 x f32>>
                %132 = llvm.getelementptr %131[%c0_i32, %c0_i32] : (!llvm.ptr<array<3012 x f32>>, i32, i32) -> !llvm.ptr<f32>
                %133 = arith.addi %130, %c400_i64 : i64
                %134 = llvm.getelementptr %132[%133] : (!llvm.ptr<f32>, i64) -> !llvm.ptr<f32>
                %135 = llvm.load %108 : !llvm.ptr<i32>
                %136 = llvm.load %109 : !llvm.ptr<i32>
                %137 = arith.addi %136, %135 : i32
                llvm.store %137, %109 : !llvm.ptr<i32>
                %138 = llvm.load %109 : !llvm.ptr<i32>
                %139 = arith.index_cast %138 : i32 to index
                %140 = memref.load %arg0[%139] : memref<?xf32>
                %141 = llvm.getelementptr %134[%c0_i32] : (!llvm.ptr<f32>, i32) -> !llvm.ptr<f32>
                llvm.store %140, %141 : !llvm.ptr<f32>
                %142 = llvm.load %104 : !llvm.ptr<i32>
                %143 = arith.index_cast %142 : i32 to index
                %144 = arith.index_cast %143 : index to i64
                %145 = arith.addi %144, %c300_i64 : i64
                %146 = llvm.getelementptr %132[%145] : (!llvm.ptr<f32>, i64) -> !llvm.ptr<f32>
                %147 = llvm.load %104 : !llvm.ptr<i32>
                %148 = arith.index_cast %147 : i32 to index
                %149 = arith.index_cast %148 : index to i64
                %150 = arith.addi %149, %c500_i64 : i64
                %151 = llvm.getelementptr %132[%150] : (!llvm.ptr<f32>, i64) -> !llvm.ptr<f32>
                %152 = llvm.load %108 : !llvm.ptr<i32>
                %153 = llvm.load %109 : !llvm.ptr<i32>
                %154 = arith.addi %153, %152 : i32
                llvm.store %154, %109 : !llvm.ptr<i32>
                %155 = llvm.load %109 : !llvm.ptr<i32>
                %156 = arith.index_cast %155 : i32 to index
                %157 = memref.load %arg0[%156] : memref<?xf32>
                %158 = llvm.getelementptr %151[%c0_i32] : (!llvm.ptr<f32>, i32) -> !llvm.ptr<f32>
                llvm.store %157, %158 : !llvm.ptr<f32>
                %159 = llvm.load %158 : !llvm.ptr<f32>
                %160 = llvm.getelementptr %146[%c0_i32] : (!llvm.ptr<f32>, i32) -> !llvm.ptr<f32>
                llvm.store %159, %160 : !llvm.ptr<f32>
                %161 = llvm.load %104 : !llvm.ptr<i32>
                %162 = arith.index_cast %161 : i32 to index
                %163 = arith.index_cast %162 : index to i64
                %164 = arith.addi %163, %c200_i64 : i64
                %165 = llvm.getelementptr %132[%164] : (!llvm.ptr<f32>, i64) -> !llvm.ptr<f32>
                %166 = llvm.load %104 : !llvm.ptr<i32>
                %167 = arith.index_cast %166 : i32 to index
                %168 = arith.index_cast %167 : index to i64
                %169 = arith.addi %168, %c600_i64 : i64
                %170 = llvm.getelementptr %132[%169] : (!llvm.ptr<f32>, i64) -> !llvm.ptr<f32>
                %171 = llvm.load %108 : !llvm.ptr<i32>
                %172 = llvm.load %109 : !llvm.ptr<i32>
                %173 = arith.addi %172, %171 : i32
                llvm.store %173, %109 : !llvm.ptr<i32>
                %174 = llvm.load %109 : !llvm.ptr<i32>
                %175 = arith.index_cast %174 : i32 to index
                %176 = memref.load %arg0[%175] : memref<?xf32>
                %177 = llvm.getelementptr %170[%c0_i32] : (!llvm.ptr<f32>, i32) -> !llvm.ptr<f32>
                llvm.store %176, %177 : !llvm.ptr<f32>
                %178 = llvm.load %177 : !llvm.ptr<f32>
                %179 = llvm.getelementptr %165[%c0_i32] : (!llvm.ptr<f32>, i32) -> !llvm.ptr<f32>
                llvm.store %178, %179 : !llvm.ptr<f32>
                %180 = llvm.load %104 : !llvm.ptr<i32>
                %181 = arith.index_cast %180 : i32 to index
                %182 = arith.index_cast %181 : index to i64
                %183 = arith.addi %182, %c100_i64 : i64
                %184 = llvm.getelementptr %132[%183] : (!llvm.ptr<f32>, i64) -> !llvm.ptr<f32>
                %185 = llvm.load %108 : !llvm.ptr<i32>
                %186 = llvm.load %109 : !llvm.ptr<i32>
                %187 = arith.addi %186, %185 : i32
                llvm.store %187, %109 : !llvm.ptr<i32>
                %188 = llvm.load %109 : !llvm.ptr<i32>
                %189 = arith.index_cast %188 : i32 to index
                %190 = memref.load %arg0[%189] : memref<?xf32>
                %191 = llvm.getelementptr %184[%c0_i32] : (!llvm.ptr<f32>, i32) -> !llvm.ptr<f32>
                llvm.store %190, %191 : !llvm.ptr<f32>
                %192 = llvm.load %104 : !llvm.ptr<i32>
                %193 = arith.index_cast %192 : i32 to index
                %194 = arith.index_cast %193 : index to i64
                %195 = llvm.getelementptr %132[%194] : (!llvm.ptr<f32>, i64) -> !llvm.ptr<f32>
                %196 = llvm.load %108 : !llvm.ptr<i32>
                %197 = llvm.load %109 : !llvm.ptr<i32>
                %198 = arith.addi %197, %196 : i32
                llvm.store %198, %109 : !llvm.ptr<i32>
                %199 = llvm.load %109 : !llvm.ptr<i32>
                %200 = arith.index_cast %199 : i32 to index
                %201 = memref.load %arg0[%200] : memref<?xf32>
                %202 = llvm.getelementptr %195[%c0_i32] : (!llvm.ptr<f32>, i32) -> !llvm.ptr<f32>
                llvm.store %201, %202 : !llvm.ptr<f32>
                %203 = arith.addi %91, %c3_i32 : i32
                %204 = scf.if %123 -> (i32) {
                  %208 = arith.muli %arg2, %c2_i32 : i32
                  %209 = arith.addi %208, %c-2_i32 : i32
                  %210 = arith.subi %209, %122 : i32
                  scf.yield %210 : i32
                } else {
                  %208 = arith.cmpi ult, %122, %c0_i32 : i32
                  %209 = scf.if %208 -> (i32) {
                    %210 = arith.subi %c0_i32, %122 : i32
                    scf.yield %210 : i32
                  } else {
                    scf.yield %122 : i32
                  }
                  scf.yield %209 : i32
                }
                llvm.store %c0_i32, %107 : !llvm.ptr<i32>
                llvm.store %arg2, %108 : !llvm.ptr<i32>
                %205 = arith.muli %arg2, %203 : i32
                %206 = arith.addi %204, %205 : i32
                %207 = arith.subi %206, %arg2 : i32
                llvm.store %207, %109 : !llvm.ptr<i32>
              } else {
                %123 = arith.addi %91, %c-4_i32 : i32
                %124 = arith.cmpi uge, %122, %arg2 : i32
                %125 = scf.if %124 -> (i32) {
                  %129 = arith.muli %arg2, %c2_i32 : i32
                  %130 = arith.addi %129, %c-2_i32 : i32
                  %131 = arith.subi %130, %122 : i32
                  scf.yield %131 : i32
                } else {
                  %129 = arith.cmpi ult, %122, %c0_i32 : i32
                  %130 = scf.if %129 -> (i32) {
                    %131 = arith.subi %c0_i32, %122 : i32
                    scf.yield %131 : i32
                  } else {
                    scf.yield %122 : i32
                  }
                  scf.yield %130 : i32
                }
                llvm.store %c0_i32, %107 : !llvm.ptr<i32>
                llvm.store %arg2, %108 : !llvm.ptr<i32>
                %126 = arith.muli %arg2, %123 : i32
                %127 = arith.addi %125, %126 : i32
                %128 = arith.subi %127, %arg2 : i32
                llvm.store %128, %109 : !llvm.ptr<i32>
                scf.for %arg9 = %c0 to %c7 step %c1 {
                  %129 = arith.index_cast %arg9 : index to i64
                  %130 = llvm.load %104 : !llvm.ptr<i32>
                  %131 = arith.index_cast %130 : i32 to index
                  %132 = arith.index_cast %131 : index to i64
                  %133 = arith.muli %129, %c100_i64 : i64
                  %134 = llvm.getelementptr %93[%c0_i32, %c0_i32] : (!llvm.ptr<struct<(array<3012 x f32>)>>, i32, i32) -> !llvm.ptr<array<3012 x f32>>
                  %135 = llvm.getelementptr %134[%c0_i32, %c0_i32] : (!llvm.ptr<array<3012 x f32>>, i32, i32) -> !llvm.ptr<f32>
                  %136 = arith.addi %132, %133 : i64
                  %137 = llvm.getelementptr %135[%136] : (!llvm.ptr<f32>, i64) -> !llvm.ptr<f32>
                  %138 = llvm.load %108 : !llvm.ptr<i32>
                  %139 = llvm.load %109 : !llvm.ptr<i32>
                  %140 = arith.addi %139, %138 : i32
                  llvm.store %140, %109 : !llvm.ptr<i32>
                  %141 = llvm.load %109 : !llvm.ptr<i32>
                  %142 = arith.index_cast %141 : i32 to index
                  %143 = memref.load %arg0[%142] : memref<?xf32>
                  %144 = llvm.getelementptr %137[%c0_i32] : (!llvm.ptr<f32>, i32) -> !llvm.ptr<f32>
                  llvm.store %143, %144 : !llvm.ptr<f32>
                }
              }
            }
            scf.yield
          }
          %76 = memref.alloc() : memref<192xi1>
          %77 = memref.alloc() : memref<192xmemref<1xf32>>
          scf.parallel (%arg8) = (%c0) to (%c192) step (%c1) {
            %86 = memref.get_global @_ZN8dwt_cudaL11f97Predict1E : memref<1xf32>
            memref.store %86, %77[%arg8] : memref<192xmemref<1xf32>>
            %87 = affine.load %86[0] : memref<1xf32>
            scf.for %arg9 = %c0 to %c3 step %c1 {
              %90 = arith.index_cast %arg9 : index to i64
              %91 = memref.load %70[%arg8] : memref<192x!llvm.ptr<struct<(array<3012 x f32>)>>>
              %92 = llvm.getelementptr %91[%c0_i32, %c0_i32] : (!llvm.ptr<struct<(array<3012 x f32>)>>, i32, i32) -> !llvm.ptr<array<3012 x f32>>
              %93 = llvm.getelementptr %92[%c0_i32, %c0_i32] : (!llvm.ptr<array<3012 x f32>>, i32, i32) -> !llvm.ptr<f32>
              %94 = arith.muli %90, %c192_i64 : i64
              %95 = memref.load %56[%arg8] : memref<192xi64>
              %96 = arith.addi %94, %95 : i64
              %97 = llvm.getelementptr %93[%96] : (!llvm.ptr<f32>, i64) -> !llvm.ptr<f32>
              %98 = llvm.load %97 : !llvm.ptr<f32>
              %99 = arith.addi %94, %c1_i64 : i64
              %100 = memref.load %56[%arg8] : memref<192xi64>
              %101 = arith.addi %99, %100 : i64
              %102 = llvm.getelementptr %93[%101] : (!llvm.ptr<f32>, i64) -> !llvm.ptr<f32>
              %103 = llvm.load %102 : !llvm.ptr<f32>
              %104 = arith.addi %94, %c1512_i64 : i64
              %105 = memref.load %56[%arg8] : memref<192xi64>
              %106 = arith.addi %104, %105 : i64
              %107 = llvm.getelementptr %93[%106] : (!llvm.ptr<f32>, i64) -> !llvm.ptr<f32>
              %108 = arith.addf %98, %103 : f32
              %109 = arith.mulf %87, %108 : f32
              %110 = llvm.getelementptr %107[%c0_i32] : (!llvm.ptr<f32>, i32) -> !llvm.ptr<f32>
              %111 = llvm.load %110 : !llvm.ptr<f32>
              %112 = arith.addf %111, %109 : f32
              llvm.store %112, %110 : !llvm.ptr<f32>
            }
            %88 = memref.load %57[%arg8] : memref<192xi32>
            %89 = arith.cmpi ult, %88, %c123_i32 : i32
            memref.store %89, %76[%arg8] : memref<192xi1>
            scf.if %89 {
              %90 = memref.load %70[%arg8] : memref<192x!llvm.ptr<struct<(array<3012 x f32>)>>>
              %91 = llvm.getelementptr %90[%c0_i32, %c0_i32] : (!llvm.ptr<struct<(array<3012 x f32>)>>, i32, i32) -> !llvm.ptr<array<3012 x f32>>
              %92 = llvm.getelementptr %91[%c0_i32, %c0_i32] : (!llvm.ptr<array<3012 x f32>>, i32, i32) -> !llvm.ptr<f32>
              %93 = memref.load %56[%arg8] : memref<192xi64>
              %94 = arith.addi %93, %c576_i64 : i64
              %95 = llvm.getelementptr %92[%94] : (!llvm.ptr<f32>, i64) -> !llvm.ptr<f32>
              %96 = llvm.load %95 : !llvm.ptr<f32>
              %97 = memref.load %56[%arg8] : memref<192xi64>
              %98 = arith.addi %97, %c577_i64 : i64
              %99 = llvm.getelementptr %92[%98] : (!llvm.ptr<f32>, i64) -> !llvm.ptr<f32>
              %100 = llvm.load %99 : !llvm.ptr<f32>
              %101 = memref.load %56[%arg8] : memref<192xi64>
              %102 = arith.addi %101, %c2088_i64 : i64
              %103 = llvm.getelementptr %92[%102] : (!llvm.ptr<f32>, i64) -> !llvm.ptr<f32>
              %104 = arith.addf %96, %100 : f32
              %105 = arith.mulf %87, %104 : f32
              %106 = llvm.getelementptr %103[%c0_i32] : (!llvm.ptr<f32>, i32) -> !llvm.ptr<f32>
              %107 = llvm.load %106 : !llvm.ptr<f32>
              %108 = arith.addf %107, %105 : f32
              llvm.store %108, %106 : !llvm.ptr<f32>
            }
            scf.yield
          }
          %78 = memref.alloc() : memref<192xmemref<1xf32>>
          scf.parallel (%arg8) = (%c0) to (%c192) step (%c1) {
            %86 = memref.get_global @_ZN8dwt_cudaL10f97Update1E : memref<1xf32>
            memref.store %86, %78[%arg8] : memref<192xmemref<1xf32>>
            %87 = affine.load %86[0] : memref<1xf32>
            scf.for %arg9 = %c0 to %c3 step %c1 {
              %89 = arith.index_cast %arg9 : index to i64
              %90 = memref.load %70[%arg8] : memref<192x!llvm.ptr<struct<(array<3012 x f32>)>>>
              %91 = llvm.getelementptr %90[%c0_i32, %c0_i32] : (!llvm.ptr<struct<(array<3012 x f32>)>>, i32, i32) -> !llvm.ptr<array<3012 x f32>>
              %92 = llvm.getelementptr %91[%c0_i32, %c0_i32] : (!llvm.ptr<array<3012 x f32>>, i32, i32) -> !llvm.ptr<f32>
              %93 = arith.muli %89, %c192_i64 : i64
              %94 = arith.addi %93, %c1512_i64 : i64
              %95 = memref.load %56[%arg8] : memref<192xi64>
              %96 = arith.addi %94, %95 : i64
              %97 = llvm.getelementptr %92[%96] : (!llvm.ptr<f32>, i64) -> !llvm.ptr<f32>
              %98 = llvm.load %97 : !llvm.ptr<f32>
              %99 = arith.addi %93, %c1513_i64 : i64
              %100 = memref.load %56[%arg8] : memref<192xi64>
              %101 = arith.addi %99, %100 : i64
              %102 = llvm.getelementptr %92[%101] : (!llvm.ptr<f32>, i64) -> !llvm.ptr<f32>
              %103 = llvm.load %102 : !llvm.ptr<f32>
              %104 = arith.addi %93, %c1_i64 : i64
              %105 = memref.load %56[%arg8] : memref<192xi64>
              %106 = arith.addi %104, %105 : i64
              %107 = llvm.getelementptr %92[%106] : (!llvm.ptr<f32>, i64) -> !llvm.ptr<f32>
              %108 = arith.addf %98, %103 : f32
              %109 = arith.mulf %87, %108 : f32
              %110 = llvm.getelementptr %107[%c0_i32] : (!llvm.ptr<f32>, i32) -> !llvm.ptr<f32>
              %111 = llvm.load %110 : !llvm.ptr<f32>
              %112 = arith.addf %111, %109 : f32
              llvm.store %112, %110 : !llvm.ptr<f32>
            }
            %88 = memref.load %76[%arg8] : memref<192xi1>
            scf.if %88 {
              %89 = memref.load %70[%arg8] : memref<192x!llvm.ptr<struct<(array<3012 x f32>)>>>
              %90 = llvm.getelementptr %89[%c0_i32, %c0_i32] : (!llvm.ptr<struct<(array<3012 x f32>)>>, i32, i32) -> !llvm.ptr<array<3012 x f32>>
              %91 = llvm.getelementptr %90[%c0_i32, %c0_i32] : (!llvm.ptr<array<3012 x f32>>, i32, i32) -> !llvm.ptr<f32>
              %92 = memref.load %56[%arg8] : memref<192xi64>
              %93 = arith.addi %92, %c2088_i64 : i64
              %94 = llvm.getelementptr %91[%93] : (!llvm.ptr<f32>, i64) -> !llvm.ptr<f32>
              %95 = llvm.load %94 : !llvm.ptr<f32>
              %96 = memref.load %56[%arg8] : memref<192xi64>
              %97 = arith.addi %96, %c2089_i64 : i64
              %98 = llvm.getelementptr %91[%97] : (!llvm.ptr<f32>, i64) -> !llvm.ptr<f32>
              %99 = llvm.load %98 : !llvm.ptr<f32>
              %100 = memref.load %56[%arg8] : memref<192xi64>
              %101 = arith.addi %100, %c577_i64 : i64
              %102 = llvm.getelementptr %91[%101] : (!llvm.ptr<f32>, i64) -> !llvm.ptr<f32>
              %103 = arith.addf %95, %99 : f32
              %104 = arith.mulf %87, %103 : f32
              %105 = llvm.getelementptr %102[%c0_i32] : (!llvm.ptr<f32>, i32) -> !llvm.ptr<f32>
              %106 = llvm.load %105 : !llvm.ptr<f32>
              %107 = arith.addf %106, %104 : f32
              llvm.store %107, %105 : !llvm.ptr<f32>
            }
            scf.yield
          }
          %79 = memref.alloc() : memref<192xmemref<1xf32>>
          scf.parallel (%arg8) = (%c0) to (%c192) step (%c1) {
            %86 = memref.get_global @_ZN8dwt_cudaL11f97Predict2E : memref<1xf32>
            memref.store %86, %79[%arg8] : memref<192xmemref<1xf32>>
            %87 = affine.load %86[0] : memref<1xf32>
            scf.for %arg9 = %c0 to %c3 step %c1 {
              %89 = arith.index_cast %arg9 : index to i64
              %90 = memref.load %70[%arg8] : memref<192x!llvm.ptr<struct<(array<3012 x f32>)>>>
              %91 = llvm.getelementptr %90[%c0_i32, %c0_i32] : (!llvm.ptr<struct<(array<3012 x f32>)>>, i32, i32) -> !llvm.ptr<array<3012 x f32>>
              %92 = llvm.getelementptr %91[%c0_i32, %c0_i32] : (!llvm.ptr<array<3012 x f32>>, i32, i32) -> !llvm.ptr<f32>
              %93 = arith.muli %89, %c192_i64 : i64
              %94 = memref.load %56[%arg8] : memref<192xi64>
              %95 = arith.addi %93, %94 : i64
              %96 = llvm.getelementptr %92[%95] : (!llvm.ptr<f32>, i64) -> !llvm.ptr<f32>
              %97 = llvm.load %96 : !llvm.ptr<f32>
              %98 = arith.addi %93, %c1_i64 : i64
              %99 = memref.load %56[%arg8] : memref<192xi64>
              %100 = arith.addi %98, %99 : i64
              %101 = llvm.getelementptr %92[%100] : (!llvm.ptr<f32>, i64) -> !llvm.ptr<f32>
              %102 = llvm.load %101 : !llvm.ptr<f32>
              %103 = arith.addi %93, %c1512_i64 : i64
              %104 = memref.load %56[%arg8] : memref<192xi64>
              %105 = arith.addi %103, %104 : i64
              %106 = llvm.getelementptr %92[%105] : (!llvm.ptr<f32>, i64) -> !llvm.ptr<f32>
              %107 = arith.addf %97, %102 : f32
              %108 = arith.mulf %87, %107 : f32
              %109 = llvm.getelementptr %106[%c0_i32] : (!llvm.ptr<f32>, i32) -> !llvm.ptr<f32>
              %110 = llvm.load %109 : !llvm.ptr<f32>
              %111 = arith.addf %110, %108 : f32
              llvm.store %111, %109 : !llvm.ptr<f32>
            }
            %88 = memref.load %76[%arg8] : memref<192xi1>
            scf.if %88 {
              %89 = memref.load %70[%arg8] : memref<192x!llvm.ptr<struct<(array<3012 x f32>)>>>
              %90 = llvm.getelementptr %89[%c0_i32, %c0_i32] : (!llvm.ptr<struct<(array<3012 x f32>)>>, i32, i32) -> !llvm.ptr<array<3012 x f32>>
              %91 = llvm.getelementptr %90[%c0_i32, %c0_i32] : (!llvm.ptr<array<3012 x f32>>, i32, i32) -> !llvm.ptr<f32>
              %92 = memref.load %56[%arg8] : memref<192xi64>
              %93 = arith.addi %92, %c576_i64 : i64
              %94 = llvm.getelementptr %91[%93] : (!llvm.ptr<f32>, i64) -> !llvm.ptr<f32>
              %95 = llvm.load %94 : !llvm.ptr<f32>
              %96 = memref.load %56[%arg8] : memref<192xi64>
              %97 = arith.addi %96, %c577_i64 : i64
              %98 = llvm.getelementptr %91[%97] : (!llvm.ptr<f32>, i64) -> !llvm.ptr<f32>
              %99 = llvm.load %98 : !llvm.ptr<f32>
              %100 = memref.load %56[%arg8] : memref<192xi64>
              %101 = arith.addi %100, %c2088_i64 : i64
              %102 = llvm.getelementptr %91[%101] : (!llvm.ptr<f32>, i64) -> !llvm.ptr<f32>
              %103 = arith.addf %95, %99 : f32
              %104 = arith.mulf %87, %103 : f32
              %105 = llvm.getelementptr %102[%c0_i32] : (!llvm.ptr<f32>, i32) -> !llvm.ptr<f32>
              %106 = llvm.load %105 : !llvm.ptr<f32>
              %107 = arith.addf %106, %104 : f32
              llvm.store %107, %105 : !llvm.ptr<f32>
            }
            scf.yield
          }
          %80 = memref.alloc() : memref<192xmemref<1xf32>>
          scf.parallel (%arg8) = (%c0) to (%c192) step (%c1) {
            %86 = memref.get_global @_ZN8dwt_cudaL10f97Update2E : memref<1xf32>
            memref.store %86, %80[%arg8] : memref<192xmemref<1xf32>>
            %87 = affine.load %86[0] : memref<1xf32>
            scf.for %arg9 = %c0 to %c3 step %c1 {
              %89 = arith.index_cast %arg9 : index to i64
              %90 = memref.load %70[%arg8] : memref<192x!llvm.ptr<struct<(array<3012 x f32>)>>>
              %91 = llvm.getelementptr %90[%c0_i32, %c0_i32] : (!llvm.ptr<struct<(array<3012 x f32>)>>, i32, i32) -> !llvm.ptr<array<3012 x f32>>
              %92 = llvm.getelementptr %91[%c0_i32, %c0_i32] : (!llvm.ptr<array<3012 x f32>>, i32, i32) -> !llvm.ptr<f32>
              %93 = arith.muli %89, %c192_i64 : i64
              %94 = arith.addi %93, %c1512_i64 : i64
              %95 = memref.load %56[%arg8] : memref<192xi64>
              %96 = arith.addi %94, %95 : i64
              %97 = llvm.getelementptr %92[%96] : (!llvm.ptr<f32>, i64) -> !llvm.ptr<f32>
              %98 = llvm.load %97 : !llvm.ptr<f32>
              %99 = arith.addi %93, %c1513_i64 : i64
              %100 = memref.load %56[%arg8] : memref<192xi64>
              %101 = arith.addi %99, %100 : i64
              %102 = llvm.getelementptr %92[%101] : (!llvm.ptr<f32>, i64) -> !llvm.ptr<f32>
              %103 = llvm.load %102 : !llvm.ptr<f32>
              %104 = arith.addi %93, %c1_i64 : i64
              %105 = memref.load %56[%arg8] : memref<192xi64>
              %106 = arith.addi %104, %105 : i64
              %107 = llvm.getelementptr %92[%106] : (!llvm.ptr<f32>, i64) -> !llvm.ptr<f32>
              %108 = arith.addf %98, %103 : f32
              %109 = arith.mulf %87, %108 : f32
              %110 = llvm.getelementptr %107[%c0_i32] : (!llvm.ptr<f32>, i32) -> !llvm.ptr<f32>
              %111 = llvm.load %110 : !llvm.ptr<f32>
              %112 = arith.addf %111, %109 : f32
              llvm.store %112, %110 : !llvm.ptr<f32>
            }
            %88 = memref.load %76[%arg8] : memref<192xi1>
            scf.if %88 {
…
                %95 = arith.index_cast %arg10 : index to i64
                %96 = arith.muli %95, %c2_i64 : i64
                %97 = arith.addi %96, %c1_i64 : i64
                %98 = memref.load %70[%arg9] : memref<64x!llvm.ptr<struct<(array<940 x f32>)>>>
                %99 = llvm.getelementptr %98[%c0_i32, %c0_i32] : (!llvm.ptr<struct<(array<940 x f32>)>>, i32, i32) -> !llvm.ptr<array<940 x f32>>
                %100 = llvm.getelementptr %99[%c0_i32, %c0_i32] : (!llvm.ptr<array<940 x f32>>, i32, i32) -> !llvm.ptr<f32>
                %101 = arith.muli %96, %c36_i64 : i64
                %102 = memref.load %84[%arg9] : memref<64xi64>
                %103 = arith.addi %102, %101 : i64
                %104 = llvm.getelementptr %100[%103] : (!llvm.ptr<f32>, i64) -> !llvm.ptr<f32>
                %105 = llvm.load %104 : !llvm.ptr<f32>
                %106 = arith.addi %96, %c2_i64 : i64
                %107 = arith.muli %106, %c36_i64 : i64
                %108 = memref.load %84[%arg9] : memref<64xi64>
                %109 = arith.addi %108, %107 : i64
                %110 = llvm.getelementptr %100[%109] : (!llvm.ptr<f32>, i64) -> !llvm.ptr<f32>
                %111 = llvm.load %110 : !llvm.ptr<f32>
                %112 = arith.muli %97, %c36_i64 : i64
                %113 = memref.load %84[%arg9] : memref<64xi64>
                %114 = arith.addi %113, %112 : i64
                %115 = llvm.getelementptr %100[%114] : (!llvm.ptr<f32>, i64) -> !llvm.ptr<f32>
                %116 = arith.addf %105, %111 : f32
                %117 = arith.mulf %88, %116 : f32
                %118 = llvm.getelementptr %115[%c0_i32] : (!llvm.ptr<f32>, i32) -> !llvm.ptr<f32>
                %119 = llvm.load %118 : !llvm.ptr<f32>
                %120 = arith.addf %119, %117 : f32
                llvm.store %120, %118 : !llvm.ptr<f32>
              }
              %89 = memref.load %78[%arg9] : memref<64xmemref<1xf32>>
              %90 = affine.load %89[0] : memref<1xf32>
              scf.for %arg10 = %c0 to %c5 step %c1 {
                %95 = arith.index_cast %arg10 : index to i64
                %96 = arith.muli %95, %c2_i64 : i64
                %97 = arith.addi %96, %c2_i64 : i64
                %98 = memref.load %70[%arg9] : memref<64x!llvm.ptr<struct<(array<940 x f32>)>>>
                %99 = llvm.getelementptr %98[%c0_i32, %c0_i32] : (!llvm.ptr<struct<(array<940 x f32>)>>, i32, i32) -> !llvm.ptr<array<940 x f32>>
                %100 = llvm.getelementptr %99[%c0_i32, %c0_i32] : (!llvm.ptr<array<940 x f32>>, i32, i32) -> !llvm.ptr<f32>
                %101 = arith.addi %96, %c1_i64 : i64
                %102 = arith.muli %101, %c36_i64 : i64
                %103 = memref.load %84[%arg9] : memref<64xi64>
                %104 = arith.addi %103, %102 : i64
                %105 = llvm.getelementptr %100[%104] : (!llvm.ptr<f32>, i64) -> !llvm.ptr<f32>
                %106 = llvm.load %105 : !llvm.ptr<f32>
                %107 = arith.addi %96, %c3_i64 : i64
                %108 = arith.muli %107, %c36_i64 : i64
                %109 = memref.load %84[%arg9] : memref<64xi64>
                %110 = arith.addi %109, %108 : i64
                %111 = llvm.getelementptr %100[%110] : (!llvm.ptr<f32>, i64) -> !llvm.ptr<f32>
                %112 = llvm.load %111 : !llvm.ptr<f32>
                %113 = arith.muli %97, %c36_i64 : i64
                %114 = memref.load %84[%arg9] : memref<64xi64>
                %115 = arith.addi %114, %113 : i64
                %116 = llvm.getelementptr %100[%115] : (!llvm.ptr<f32>, i64) -> !llvm.ptr<f32>
                %117 = arith.addf %106, %112 : f32
                %118 = arith.mulf %90, %117 : f32
                %119 = llvm.getelementptr %116[%c0_i32] : (!llvm.ptr<f32>, i32) -> !llvm.ptr<f32>
                %120 = llvm.load %119 : !llvm.ptr<f32>
                %121 = arith.addf %120, %118 : f32
                llvm.store %121, %119 : !llvm.ptr<f32>
              }
              %91 = memref.load %79[%arg9] : memref<64xmemref<1xf32>>
              %92 = affine.load %91[0] : memref<1xf32>
              scf.for %arg10 = %c0 to %c6 step %c1 {
                %95 = arith.index_cast %arg10 : index to i64
                %96 = arith.muli %95, %c2_i64 : i64
                %97 = arith.addi %96, %c1_i64 : i64
                %98 = memref.load %70[%arg9] : memref<64x!llvm.ptr<struct<(array<940 x f32>)>>>
                %99 = llvm.getelementptr %98[%c0_i32, %c0_i32] : (!llvm.ptr<struct<(array<940 x f32>)>>, i32, i32) -> !llvm.ptr<array<940 x f32>>
                %100 = llvm.getelementptr %99[%c0_i32, %c0_i32] : (!llvm.ptr<array<940 x f32>>, i32, i32) -> !llvm.ptr<f32>
                %101 = arith.muli %96, %c36_i64 : i64
                %102 = memref.load %84[%arg9] : memref<64xi64>
                %103 = arith.addi %102, %101 : i64
                %104 = llvm.getelementptr %100[%103] : (!llvm.ptr<f32>, i64) -> !llvm.ptr<f32>
                %105 = llvm.load %104 : !llvm.ptr<f32>
                %106 = arith.addi %96, %c2_i64 : i64
                %107 = arith.muli %106, %c36_i64 : i64
                %108 = memref.load %84[%arg9] : memref<64xi64>
                %109 = arith.addi %108, %107 : i64
                %110 = llvm.getelementptr %100[%109] : (!llvm.ptr<f32>, i64) -> !llvm.ptr<f32>
                %111 = llvm.load %110 : !llvm.ptr<f32>
                %112 = arith.muli %97, %c36_i64 : i64
                %113 = memref.load %84[%arg9] : memref<64xi64>
                %114 = arith.addi %113, %112 : i64
                %115 = llvm.getelementptr %100[%114] : (!llvm.ptr<f32>, i64) -> !llvm.ptr<f32>
                %116 = arith.addf %105, %111 : f32
                %117 = arith.mulf %92, %116 : f32
                %118 = llvm.getelementptr %115[%c0_i32] : (!llvm.ptr<f32>, i32) -> !llvm.ptr<f32>
                %119 = llvm.load %118 : !llvm.ptr<f32>
                %120 = arith.addf %119, %117 : f32
                llvm.store %120, %118 : !llvm.ptr<f32>
              }
              %93 = memref.load %80[%arg9] : memref<64xmemref<1xf32>>
              %94 = affine.load %93[0] : memref<1xf32>
              scf.for %arg10 = %c0 to %c5 step %c1 {
                %95 = arith.index_cast %arg10 : index to i64
                %96 = arith.muli %95, %c2_i64 : i64
                %97 = arith.addi %96, %c2_i64 : i64
                %98 = memref.load %70[%arg9] : memref<64x!llvm.ptr<struct<(array<940 x f32>)>>>
                %99 = llvm.getelementptr %98[%c0_i32, %c0_i32] : (!llvm.ptr<struct<(array<940 x f32>)>>, i32, i32) -> !llvm.ptr<array<940 x f32>>
                %100 = llvm.getelementptr %99[%c0_i32, %c0_i32] : (!llvm.ptr<array<940 x f32>>, i32, i32) -> !llvm.ptr<f32>
                %101 = arith.addi %96, %c1_i64 : i64
                %102 = arith.muli %101, %c36_i64 : i64
                %103 = memref.load %84[%arg9] : memref<64xi64>
                %104 = arith.addi %103, %102 : i64
                %105 = llvm.getelementptr %100[%104] : (!llvm.ptr<f32>, i64) -> !llvm.ptr<f32>
                %106 = llvm.load %105 : !llvm.ptr<f32>
                %107 = arith.addi %96, %c3_i64 : i64
                %108 = arith.muli %107, %c36_i64 : i64
                %109 = memref.load %84[%arg9] : memref<64xi64>
                %110 = arith.addi %109, %108 : i64
                %111 = llvm.getelementptr %100[%110] : (!llvm.ptr<f32>, i64) -> !llvm.ptr<f32>
                %112 = llvm.load %111 : !llvm.ptr<f32>
                %113 = arith.muli %97, %c36_i64 : i64
                %114 = memref.load %84[%arg9] : memref<64xi64>
                %115 = arith.addi %114, %113 : i64
                %116 = llvm.getelementptr %100[%115] : (!llvm.ptr<f32>, i64) -> !llvm.ptr<f32>
                %117 = arith.addf %106, %112 : f32
                %118 = arith.mulf %94, %117 : f32
                %119 = llvm.getelementptr %116[%c0_i32] : (!llvm.ptr<f32>, i32) -> !llvm.ptr<f32>
                %120 = llvm.load %119 : !llvm.ptr<f32>
                %121 = arith.addf %120, %118 : f32
                llvm.store %121, %119 : !llvm.ptr<f32>
              }
              scf.for %arg10 = %c4 to %c10 step %c2 {
                %95 = arith.index_cast %arg10 : index to i64
                %96 = arith.muli %95, %c36_i64 : i64
                %97 = memref.load %84[%arg9] : memref<64xi64>
                %98 = arith.addi %97, %96 : i64
                %99 = memref.load %70[%arg9] : memref<64x!llvm.ptr<struct<(array<940 x f32>)>>>
                %100 = llvm.getelementptr %99[%c0_i32, %c0_i32] : (!llvm.ptr<struct<(array<940 x f32>)>>, i32, i32) -> !llvm.ptr<array<940 x f32>>
                %101 = llvm.getelementptr %100[%c0_i32, %c0_i32] : (!llvm.ptr<array<940 x f32>>, i32, i32) -> !llvm.ptr<f32>
                %102 = llvm.getelementptr %101[%98] : (!llvm.ptr<f32>, i64) -> !llvm.ptr<f32>
                %103 = llvm.getelementptr %102[%c0_i32] : (!llvm.ptr<f32>, i32) -> !llvm.ptr<f32>
                %104 = llvm.load %103 : !llvm.ptr<f32>
                %105 = memref.load %82[%arg9] : memref<64xmemref<1xf32>>
                %106 = affine.load %105[0] : memref<1xf32>
                %107 = arith.mulf %104, %106 : f32
                %108 = memref.load %74[%arg9] : memref<64x!llvm.ptr<struct<(struct<(i32, i32, i32)>, i32)>>>
                %109 = llvm.bitcast %108 : !llvm.ptr<struct<(struct<(i32, i32, i32)>, i32)>> to !llvm.ptr<struct<(i32, i32, i32)>>
                %110 = llvm.getelementptr %109[%c0_i32, %c2_i32] : (!llvm.ptr<struct<(i32, i32, i32)>>, i32, i32) -> !llvm.ptr<i32>
                %111 = memref.load %74[%arg9] : memref<64x!llvm.ptr<struct<(struct<(i32, i32, i32)>, i32)>>>
                %112 = llvm.getelementptr %111[%c0_i32, %c1_i32] : (!llvm.ptr<struct<(struct<(i32, i32, i32)>, i32)>>, i32, i32) -> !llvm.ptr<i32>
                %113 = llvm.load %112 : !llvm.ptr<i32>
                %114 = arith.index_cast %113 : i32 to index
                memref.store %107, %arg1[%114] : memref<?xf32>
                %115 = llvm.getelementptr %110[%c0_i32] : (!llvm.ptr<i32>, i32) -> !llvm.ptr<i32>
                %116 = llvm.load %115 : !llvm.ptr<i32>
                %117 = llvm.load %112 : !llvm.ptr<i32>
                %118 = arith.addi %117, %116 : i32
                llvm.store %118, %112 : !llvm.ptr<i32>
                %119 = llvm.load %112 : !llvm.ptr<i32>
                %120 = arith.addi %98, %c36_i64 : i64
                %121 = llvm.getelementptr %101[%120] : (!llvm.ptr<f32>, i64) -> !llvm.ptr<f32>
                %122 = llvm.getelementptr %121[%c0_i32] : (!llvm.ptr<f32>, i32) -> !llvm.ptr<f32>
                %123 = llvm.load %122 : !llvm.ptr<f32>
                %124 = memref.load %81[%arg9] : memref<64xmemref<1xf32>>
                %125 = affine.load %124[0] : memref<1xf32>
                %126 = arith.mulf %123, %125 : f32
                %127 = llvm.getelementptr %109[%c0_i32, %c1_i32] : (!llvm.ptr<struct<(i32, i32, i32)>>, i32, i32) -> !llvm.ptr<i32>
                %128 = llvm.load %112 : !llvm.ptr<i32>
                %129 = arith.index_cast %128 : i32 to index
                memref.store %126, %arg1[%129] : memref<?xf32>
                %130 = llvm.getelementptr %127[%c0_i32] : (!llvm.ptr<i32>, i32) -> !llvm.ptr<i32>
                %131 = llvm.load %130 : !llvm.ptr<i32>
                %132 = llvm.load %112 : !llvm.ptr<i32>
                %133 = arith.addi %132, %131 : i32
                llvm.store %133, %112 : !llvm.ptr<i32>
                %134 = llvm.load %112 : !llvm.ptr<i32>
              }
              scf.for %arg10 = %c0 to %c7 step %c1 {
                %95 = arith.index_cast %arg10 : index to i64
                %96 = arith.muli %95, %c36_i64 : i64
                %97 = memref.load %70[%arg9] : memref<64x!llvm.ptr<struct<(array<940 x f32>)>>>
                %98 = llvm.getelementptr %97[%c0_i32, %c0_i32] : (!llvm.ptr<struct<(array<940 x f32>)>>, i32, i32) -> !llvm.ptr<array<940 x f32>>
                %99 = llvm.getelementptr %98[%c0_i32, %c0_i32] : (!llvm.ptr<array<940 x f32>>, i32, i32) -> !llvm.ptr<f32>
                %100 = memref.load %84[%arg9] : memref<64xi64>
                %101 = arith.addi %100, %96 : i64
                %102 = llvm.getelementptr %99[%101] : (!llvm.ptr<f32>, i64) -> !llvm.ptr<f32>
                %103 = memref.load %75[%arg9, %arg10] : memref<64x7xf32>
                %104 = llvm.getelementptr %102[%c0_i32] : (!llvm.ptr<f32>, i32) -> !llvm.ptr<f32>
                llvm.store %103, %104 : !llvm.ptr<f32>
              }
              scf.yield
            }
            memref.dealloc %86 : memref<64xi1>
          }
          memref.dealloc %83 : memref<64xindex>
          memref.dealloc %84 : memref<64xi64>
          memref.dealloc %81 : memref<64xmemref<1xf32>>
          memref.dealloc %82 : memref<64xmemref<1xf32>>
          memref.dealloc %80 : memref<64xmemref<1xf32>>
          memref.dealloc %79 : memref<64xmemref<1xf32>>
          memref.dealloc %78 : memref<64xmemref<1xf32>>
          memref.dealloc %76 : memref<64xi1>
          memref.dealloc %77 : memref<64xmemref<1xf32>>
          memref.dealloc %65 : memref<64xi1>
          memref.dealloc %66 : memref<64x!llvm.ptr<i32>>
          memref.dealloc %67 : memref<64x!llvm.ptr<i32>>
          memref.dealloc %68 : memref<64x!llvm.ptr<i32>>
          memref.dealloc %69 : memref<64xi32>
          memref.dealloc %70 : memref<64x!llvm.ptr<struct<(array<940 x f32>)>>>
          memref.dealloc %71 : memref<64x!llvm.ptr<i32>>
          memref.dealloc %72 : memref<64xi32>
          memref.dealloc %73 : memref<64x!llvm.ptr<struct<(struct<(struct<(i32, i32)>, i32)>, i32)>>>
          memref.dealloc %74 : memref<64x!llvm.ptr<struct<(struct<(i32, i32, i32)>, i32)>>>
          memref.dealloc %75 : memref<64x7xf32>
        }
        memref.dealloc %63 : memref<64xindex>
        memref.dealloc %61 : memref<64xindex>
      }
      memref.dealloc %59 : memref<64xindex>
      memref.dealloc %54 : memref<64xindex>
      memref.dealloc %55 : memref<64xi1>
      memref.dealloc %56 : memref<64xi64>
      memref.dealloc %57 : memref<64xi32>
      scf.yield
    }
    %30 = call @cudaDeviceSynchronize() : () -> i32
    %31 = memref.cast %0 : memref<1x2xi64> to memref<?x2xi64>
    %32 = call @clock_gettime(%c1_i32, %31) : (i32, memref<?x2xi64>) -> i32
    %33 = affine.load %0[0, 0] : memref<1x2xi64>
    %34 = affine.load %1[0, 0] : memref<1x2xi64>
    %35 = arith.subi %33, %34 : i64
    %36 = affine.load %0[0, 1] : memref<1x2xi64>
    %37 = affine.load %1[0, 1] : memref<1x2xi64>
    %38 = arith.subi %36, %37 : i64
    %39 = arith.sitofp %35 : i64 to f64
    %40 = arith.sitofp %38 : i64 to f64
    %41 = arith.mulf %40, %cst : f64
    %42 = arith.addf %39, %41 : f64
    %43 = llvm.mlir.addressof @str0 : !llvm.ptr<array<6 x i8>>
    %44 = llvm.getelementptr %43[%c0_i32, %c0_i32] : (!llvm.ptr<array<6 x i8>>, i32, i32) -> !llvm.ptr<i8>
    %45 = llvm.mlir.addressof @str1 : !llvm.ptr<array<13 x i8>>
    %46 = llvm.getelementptr %45[%c0_i32, %c0_i32] : (!llvm.ptr<array<13 x i8>>, i32, i32) -> !llvm.ptr<i8>
    call @_ZL21MY_WRITE_TIME_TO_FILEPKcS0_d(%44, %46, %42) : (!llvm.ptr<i8>, !llvm.ptr<i8>, f64) -> ()
    %47 = llvm.mlir.addressof @str2 : !llvm.ptr<array<16 x i8>>
    %48 = llvm.getelementptr %47[%c0_i32, %c0_i32] : (!llvm.ptr<array<16 x i8>>, i32, i32) -> !llvm.ptr<i8>
    %49 = call @_ZN8dwt_cuda13CudaDWTTester19checkLastKernelCallEPKc(%48) : (!llvm.ptr<i8>) -> i8
    return
  }
  func @_ZN8dwt_cuda7memCopyIfEEvPT_PKS1_mm(%arg0: memref<?xf32>, %arg1: memref<?xf32>, %arg2: i64, %arg3: i64) attributes {llvm.linkage = #llvm.linkage<linkonce_odr>} {
    %c0_i32 = arith.constant 0 : i32
    %c4 = arith.constant 4 : index
    %c0 = arith.constant 0 : index
    %c1 = arith.constant 1 : index
    %0 = arith.index_cast %arg3 : i64 to index
    %1 = arith.index_cast %arg2 : i64 to index
    %2 = memref.alloca() : memref<1xi32>
    %3 = memref.cast %2 : memref<1xi32> to memref<?xi32>
    %4 = llvm.mlir.undef : i32
    affine.store %4, %2[0] : memref<1xi32>
    %5 = arith.muli %1, %0 : index
    %6 = arith.muli %5, %c4 : index
    %7 = arith.divui %6, %c4 : index
    scf.for %arg4 = %c0 to %7 step %c1 {
      %11 = memref.load %arg1[%arg4] : memref<?xf32>
      memref.store %11, %arg0[%arg4] : memref<?xf32>
    }
    affine.store %c0_i32, %2[0] : memref<1xi32>
    %8 = llvm.mlir.addressof @str11 : !llvm.ptr<array<23 x i8>>
    %9 = llvm.getelementptr %8[%c0_i32, %c0_i32] : (!llvm.ptr<array<23 x i8>>, i32, i32) -> !llvm.ptr<i8>
    %10 = call @_ZN8dwt_cuda13CudaDWTTester5checkERK9cudaErrorPKc(%3, %9) : (memref<?xi32>, !llvm.ptr<i8>) -> i8
    return
  }
  func private @cudaDeviceSynchronize() -> i32 attributes {llvm.linkage = #llvm.linkage<external>}
  func private @clock_gettime(i32, memref<?x2xi64>) -> i32 attributes {llvm.linkage = #llvm.linkage<external>}
  func private @_ZL21MY_WRITE_TIME_TO_FILEPKcS0_d(%arg0: !llvm.ptr<i8>, %arg1: !llvm.ptr<i8>, %arg2: f64) attributes {llvm.linkage = #llvm.linkage<internal>} {
    %c1_i64 = arith.constant 1 : i64
    %true = arith.constant true
    %c0_i32 = arith.constant 0 : i32
    %c1_i32 = arith.constant 1 : i32
    %false = arith.constant false
    %0 = llvm.alloca %c1_i64 x !llvm.ptr<i8> : (i64) -> !llvm.ptr<ptr<i8>>
    %1 = llvm.alloca %c1_i64 x !llvm.ptr<i8> : (i64) -> !llvm.ptr<ptr<i8>>
    %2 = llvm.alloca %c1_i64 x !llvm.array<1 x i8> : (i64) -> !llvm.ptr<array<1 x i8>>
    %3 = llvm.alloca %c1_i64 x !llvm.ptr<struct<(i32, ptr<i8>, ptr<i8>, ptr<i8>, ptr<i8>, ptr<i8>, ptr<i8>, ptr<i8>, ptr<i8>, ptr<i8>, ptr<i8>, ptr<i8>, ptr<struct<"struct._IO_marker", (ptr<struct<"struct._IO_marker">>, ptr<struct<"struct._IO_FILE", (i32, ptr<i8>, ptr<i8>, ptr<i8>, ptr<i8>, ptr<i8>, ptr<i8>, ptr<i8>, ptr<i8>, ptr<i8>, ptr<i8>, ptr<i8>, ptr<struct<"struct._IO_marker">>, ptr<struct<"struct._IO_FILE">>, i32, i32, i64, i16, i8, array<1 x i8>, ptr<i8>, i64, ptr<i8>, ptr<i8>, ptr<i8>, ptr<i8>, i64, i32, array<20 x i8>)>>, i32, array<4 x i8>)>>, ptr<struct<"struct._IO_FILE", (i32, ptr<i8>, ptr<i8>, ptr<i8>, ptr<i8>, ptr<i8>, ptr<i8>, ptr<i8>, ptr<i8>, ptr<i8>, ptr<i8>, ptr<i8>, ptr<struct<"struct._IO_marker", (ptr<struct<"struct._IO_marker">>, ptr<struct<"struct._IO_FILE">>, i32, array<4 x i8>)>>, ptr<struct<"struct._IO_FILE">>, i32, i32, i64, i16, i8, array<1 x i8>, ptr<i8>, i64, ptr<i8>, ptr<i8>, ptr<i8>, ptr<i8>, i64, i32, array<20 x i8>)>>, i32, i32, i64, i16, i8, array<1 x i8>, ptr<i8>, i64, ptr<i8>, ptr<i8>, ptr<i8>, ptr<i8>, i64, i32, array<20 x i8>)>> : (i64) -> !llvm.ptr<ptr<struct<(i32, ptr<i8>, ptr<i8>, ptr<i8>, ptr<i8>, ptr<i8>, ptr<i8>, ptr<i8>, ptr<i8>, ptr<i8>, ptr<i8>, ptr<i8>, ptr<struct<"struct._IO_marker", (ptr<struct<"struct._IO_marker">>, ptr<struct<"struct._IO_FILE", (i32, ptr<i8>, ptr<i8>, ptr<i8>, ptr<i8>, ptr<i8>, ptr<i8>, ptr<i8>, ptr<i8>, ptr<i8>, ptr<i8>, ptr<i8>, ptr<struct<"struct._IO_marker">>, ptr<struct<"struct._IO_FILE">>, i32, i32, i64, i16, i8, array<1 x i8>, ptr<i8>, i64, ptr<i8>, ptr<i8>, ptr<i8>, ptr<i8>, i64, i32, array<20 x i8>)>>, i32, array<4 x i8>)>>, ptr<struct<"struct._IO_FILE", (i32, ptr<i8>, ptr<i8>, ptr<i8>, ptr<i8>, ptr<i8>, ptr<i8>, ptr<i8>, ptr<i8>, ptr<i8>, ptr<i8>, ptr<i8>, ptr<struct<"struct._IO_marker", (ptr<struct<"struct._IO_marker">>, ptr<struct<"struct._IO_FILE">>, i32, array<4 x i8>)>>, ptr<struct<"struct._IO_FILE">>, i32, i32, i64, i16, i8, array<1 x i8>, ptr<i8>, i64, ptr<i8>, ptr<i8>, ptr<i8>, ptr<i8>, i64, i32, array<20 x i8>)>>, i32, i32, i64, i16, i8, array<1 x i8>, ptr<i8>, i64, ptr<i8>, ptr<i8>, ptr<i8>, ptr<i8>, i64, i32, array<20 x i8>)>>>
    %4 = llvm.alloca %c1_i64 x !llvm.ptr<i8> : (i64) -> !llvm.ptr<ptr<i8>>
    %5 = llvm.alloca %c1_i64 x !llvm.ptr<i8> : (i64) -> !llvm.ptr<ptr<i8>>
    %6 = llvm.alloca %c1_i64 x !llvm.ptr<i8> : (i64) -> !llvm.ptr<ptr<i8>>
    llvm.store %arg0, %6 : !llvm.ptr<ptr<i8>>
    llvm.store %arg1, %5 : !llvm.ptr<ptr<i8>>
    %7 = llvm.mlir.addressof @str3 : !llvm.ptr<array<15 x i8>>
    %8 = llvm.getelementptr %7[%c0_i32, %c0_i32] : (!llvm.ptr<array<15 x i8>>, i32, i32) -> !llvm.ptr<i8>
    %9 = llvm.call @getenv(%8) : (!llvm.ptr<i8>) -> !llvm.ptr<i8>
    llvm.store %9, %4 : !llvm.ptr<ptr<i8>>
    %10 = llvm.load %4 : !llvm.ptr<ptr<i8>>
    %11 = llvm.mlir.null : !llvm.ptr<i8>
    %12 = llvm.icmp "eq" %10, %11 : !llvm.ptr<i8>
    %13 = scf.if %12 -> (i1) {
      scf.yield %true : i1
    } else {
      %43 = llvm.load %4 : !llvm.ptr<ptr<i8>>
      %44 = llvm.mlir.addressof @str4 : !llvm.ptr<array<1 x i8>>
      %45 = llvm.getelementptr %44[%c0_i32, %c0_i32] : (!llvm.ptr<array<1 x i8>>, i32, i32) -> !llvm.ptr<i8>
      %46 = llvm.call @strcmp(%43, %45) : (!llvm.ptr<i8>, !llvm.ptr<i8>) -> i32
      %47 = arith.cmpi eq, %46, %c0_i32 : i32
      scf.yield %47 : i1
    }
    %14 = scf.if %13 -> (i1) {
      scf.yield %true : i1
    } else {
      %43 = llvm.load %4 : !llvm.ptr<ptr<i8>>
      %44 = llvm.mlir.addressof @str5 : !llvm.ptr<array<2 x i8>>
      %45 = llvm.getelementptr %44[%c0_i32, %c0_i32] : (!llvm.ptr<array<2 x i8>>, i32, i32) -> !llvm.ptr<i8>
      %46 = llvm.call @strcmp(%43, %45) : (!llvm.ptr<i8>, !llvm.ptr<i8>) -> i32
      %47 = arith.cmpi eq, %46, %c0_i32 : i32
      scf.yield %47 : i1
    }
    scf.if %14 {
      %43 = llvm.mlir.addressof @stdout : !llvm.ptr<ptr<struct<(i32, ptr<i8>, ptr<i8>, ptr<i8>, ptr<i8>, ptr<i8>, ptr<i8>, ptr<i8>, ptr<i8>, ptr<i8>, ptr<i8>, ptr<i8>, ptr<struct<"struct._IO_marker", (ptr<struct<"struct._IO_marker">>, ptr<struct<"struct._IO_FILE", (i32, ptr<i8>, ptr<i8>, ptr<i8>, ptr<i8>, ptr<i8>, ptr<i8>, ptr<i8>, ptr<i8>, ptr<i8>, ptr<i8>, ptr<i8>, ptr<struct<"struct._IO_marker">>, ptr<struct<"struct._IO_FILE">>, i32, i32, i64, i16, i8, array<1 x i8>, ptr<i8>, i64, ptr<i8>, ptr<i8>, ptr<i8>, ptr<i8>, i64, i32, array<20 x i8>)>>, i32, array<4 x i8>)>>, ptr<struct<"struct._IO_FILE", (i32, ptr<i8>, ptr<i8>, ptr<i8>, ptr<i8>, ptr<i8>, ptr<i8>, ptr<i8>, ptr<i8>, ptr<i8>, ptr<i8>, ptr<i8>, ptr<struct<"struct._IO_marker", (ptr<struct<"struct._IO_marker">>, ptr<struct<"struct._IO_FILE">>, i32, array<4 x i8>)>>, ptr<struct<"struct._IO_FILE">>, i32, i32, i64, i16, i8, array<1 x i8>, ptr<i8>, i64, ptr<i8>, ptr<i8>, ptr<i8>, ptr<i8>, i64, i32, array<20 x i8>)>>, i32, i32, i64, i16, i8, array<1 x i8>, ptr<i8>, i64, ptr<i8>, ptr<i8>, ptr<i8>, ptr<i8>, i64, i32, array<20 x i8>)>>>
      %44 = llvm.load %43 : !llvm.ptr<ptr<struct<(i32, ptr<i8>, ptr<i8>, ptr<i8>, ptr<i8>, ptr<i8>, ptr<i8>, ptr<i8>, ptr<i8>, ptr<i8>, ptr<i8>, ptr<i8>, ptr<struct<"struct._IO_marker", (ptr<struct<"struct._IO_marker">>, ptr<struct<"struct._IO_FILE", (i32, ptr<i8>, ptr<i8>, ptr<i8>, ptr<i8>, ptr<i8>, ptr<i8>, ptr<i8>, ptr<i8>, ptr<i8>, ptr<i8>, ptr<i8>, ptr<struct<"struct._IO_marker">>, ptr<struct<"struct._IO_FILE">>, i32, i32, i64, i16, i8, array<1 x i8>, ptr<i8>, i64, ptr<i8>, ptr<i8>, ptr<i8>, ptr<i8>, i64, i32, array<20 x i8>)>>, i32, array<4 x i8>)>>, ptr<struct<"struct._IO_FILE", (i32, ptr<i8>, ptr<i8>, ptr<i8>, ptr<i8>, ptr<i8>, ptr<i8>, ptr<i8>, ptr<i8>, ptr<i8>, ptr<i8>, ptr<i8>, ptr<struct<"struct._IO_marker", (ptr<struct<"struct._IO_marker">>, ptr<struct<"struct._IO_FILE">>, i32, array<4 x i8>)>>, ptr<struct<"struct._IO_FILE">>, i32, i32, i64, i16, i8, array<1 x i8>, ptr<i8>, i64, ptr<i8>, ptr<i8>, ptr<i8>, ptr<i8>, i64, i32, array<20 x i8>)>>, i32, i32, i64, i16, i8, array<1 x i8>, ptr<i8>, i64, ptr<i8>, ptr<i8>, ptr<i8>, ptr<i8>, i64, i32, array<20 x i8>)>>>
      llvm.store %44, %3 : !llvm.ptr<ptr<struct<(i32, ptr<i8>, ptr<i8>, ptr<i8>, ptr<i8>, ptr<i8>, ptr<i8>, ptr<i8>, ptr<i8>, ptr<i8>, ptr<i8>, ptr<i8>, ptr<struct<"struct._IO_marker", (ptr<struct<"struct._IO_marker">>, ptr<struct<"struct._IO_FILE", (i32, ptr<i8>, ptr<i8>, ptr<i8>, ptr<i8>, ptr<i8>, ptr<i8>, ptr<i8>, ptr<i8>, ptr<i8>, ptr<i8>, ptr<i8>, ptr<struct<"struct._IO_marker">>, ptr<struct<"struct._IO_FILE">>, i32, i32, i64, i16, i8, array<1 x i8>, ptr<i8>, i64, ptr<i8>, ptr<i8>, ptr<i8>, ptr<i8>, i64, i32, array<20 x i8>)>>, i32, array<4 x i8>)>>, ptr<struct<"struct._IO_FILE", (i32, ptr<i8>, ptr<i8>, ptr<i8>, ptr<i8>, ptr<i8>, ptr<i8>, ptr<i8>, ptr<i8>, ptr<i8>, ptr<i8>, ptr<i8>, ptr<struct<"struct._IO_marker", (ptr<struct<"struct._IO_marker">>, ptr<struct<"struct._IO_FILE">>, i32, array<4 x i8>)>>, ptr<struct<"struct._IO_FILE">>, i32, i32, i64, i16, i8, array<1 x i8>, ptr<i8>, i64, ptr<i8>, ptr<i8>, ptr<i8>, ptr<i8>, i64, i32, array<20 x i8>)>>, i32, i32, i64, i16, i8, array<1 x i8>, ptr<i8>, i64, ptr<i8>, ptr<i8>, ptr<i8>, ptr<i8>, i64, i32, array<20 x i8>)>>>
    } else {
      %43 = llvm.load %4 : !llvm.ptr<ptr<i8>>
      %44 = llvm.mlir.addressof @str6 : !llvm.ptr<array<2 x i8>>
      %45 = llvm.getelementptr %44[%c0_i32, %c0_i32] : (!llvm.ptr<array<2 x i8>>, i32, i32) -> !llvm.ptr<i8>
      %46 = llvm.call @fopen(%43, %45) : (!llvm.ptr<i8>, !llvm.ptr<i8>) -> !llvm.ptr<struct<(i32, ptr<i8>, ptr<i8>, ptr<i8>, ptr<i8>, ptr<i8>, ptr<i8>, ptr<i8>, ptr<i8>, ptr<i8>, ptr<i8>, ptr<i8>, ptr<struct<"struct._IO_marker", (ptr<struct<"struct._IO_marker">>, ptr<struct<"struct._IO_FILE", (i32, ptr<i8>, ptr<i8>, ptr<i8>, ptr<i8>, ptr<i8>, ptr<i8>, ptr<i8>, ptr<i8>, ptr<i8>, ptr<i8>, ptr<i8>, ptr<struct<"struct._IO_marker">>, ptr<struct<"struct._IO_FILE">>, i32, i32, i64, i16, i8, array<1 x i8>, ptr<i8>, i64, ptr<i8>, ptr<i8>, ptr<i8>, ptr<i8>, i64, i32, array<20 x i8>)>>, i32, array<4 x i8>)>>, ptr<struct<"struct._IO_FILE", (i32, ptr<i8>, ptr<i8>, ptr<i8>, ptr<i8>, ptr<i8>, ptr<i8>, ptr<i8>, ptr<i8>, ptr<i8>, ptr<i8>, ptr<i8>, ptr<struct<"struct._IO_marker", (ptr<struct<"struct._IO_marker">>, ptr<struct<"struct._IO_FILE">>, i32, array<4 x i8>)>>, ptr<struct<"struct._IO_FILE">>, i32, i32, i64, i16, i8, array<1 x i8>, ptr<i8>, i64, ptr<i8>, ptr<i8>, ptr<i8>, ptr<i8>, i64, i32, array<20 x i8>)>>, i32, i32, i64, i16, i8, array<1 x i8>, ptr<i8>, i64, ptr<i8>, ptr<i8>, ptr<i8>, ptr<i8>, i64, i32, array<20 x i8>)>>
      llvm.store %46, %3 : !llvm.ptr<ptr<struct<(i32, ptr<i8>, ptr<i8>, ptr<i8>, ptr<i8>, ptr<i8>, ptr<i8>, ptr<i8>, ptr<i8>, ptr<i8>, ptr<i8>, ptr<i8>, ptr<struct<"struct._IO_marker", (ptr<struct<"struct._IO_marker">>, ptr<struct<"struct._IO_FILE", (i32, ptr<i8>, ptr<i8>, ptr<i8>, ptr<i8>, ptr<i8>, ptr<i8>, ptr<i8>, ptr<i8>, ptr<i8>, ptr<i8>, ptr<i8>, ptr<struct<"struct._IO_marker">>, ptr<struct<"struct._IO_FILE">>, i32, i32, i64, i16, i8, array<1 x i8>, ptr<i8>, i64, ptr<i8>, ptr<i8>, ptr<i8>, ptr<i8>, i64, i32, array<20 x i8>)>>, i32, array<4 x i8>)>>, ptr<struct<"struct._IO_FILE", (i32, ptr<i8>, ptr<i8>, ptr<i8>, ptr<i8>, ptr<i8>, ptr<i8>, ptr<i8>, ptr<i8>, ptr<i8>, ptr<i8>, ptr<i8>, ptr<struct<"struct._IO_marker", (ptr<struct<"struct._IO_marker">>, ptr<struct<"struct._IO_FILE">>, i32, array<4 x i8>)>>, ptr<struct<"struct._IO_FILE">>, i32, i32, i64, i16, i8, array<1 x i8>, ptr<i8>, i64, ptr<i8>, ptr<i8>, ptr<i8>, ptr<i8>, i64, i32, array<20 x i8>)>>, i32, i32, i64, i16, i8, array<1 x i8>, ptr<i8>, i64, ptr<i8>, ptr<i8>, ptr<i8>, ptr<i8>, i64, i32, array<20 x i8>)>>>
    }
    %15 = llvm.load %3 : !llvm.ptr<ptr<struct<(i32, ptr<i8>, ptr<i8>, ptr<i8>, ptr<i8>, ptr<i8>, ptr<i8>, ptr<i8>, ptr<i8>, ptr<i8>, ptr<i8>, ptr<i8>, ptr<struct<"struct._IO_marker", (ptr<struct<"struct._IO_marker">>, ptr<struct<"struct._IO_FILE", (i32, ptr<i8>, ptr<i8>, ptr<i8>, ptr<i8>, ptr<i8>, ptr<i8>, ptr<i8>, ptr<i8>, ptr<i8>, ptr<i8>, ptr<i8>, ptr<struct<"struct._IO_marker">>, ptr<struct<"struct._IO_FILE">>, i32, i32, i64, i16, i8, array<1 x i8>, ptr<i8>, i64, ptr<i8>, ptr<i8>, ptr<i8>, ptr<i8>, i64, i32, array<20 x i8>)>>, i32, array<4 x i8>)>>, ptr<struct<"struct._IO_FILE", (i32, ptr<i8>, ptr<i8>, ptr<i8>, ptr<i8>, ptr<i8>, ptr<i8>, ptr<i8>, ptr<i8>, ptr<i8>, ptr<i8>, ptr<i8>, ptr<struct<"struct._IO_marker", (ptr<struct<"struct._IO_marker">>, ptr<struct<"struct._IO_FILE">>, i32, array<4 x i8>)>>, ptr<struct<"struct._IO_FILE">>, i32, i32, i64, i16, i8, array<1 x i8>, ptr<i8>, i64, ptr<i8>, ptr<i8>, ptr<i8>, ptr<i8>, i64, i32, array<20 x i8>)>>, i32, i32, i64, i16, i8, array<1 x i8>, ptr<i8>, i64, ptr<i8>, ptr<i8>, ptr<i8>, ptr<i8>, i64, i32, array<20 x i8>)>>>
    %16 = llvm.mlir.null : !llvm.ptr<struct<(i32, ptr<i8>, ptr<i8>, ptr<i8>, ptr<i8>, ptr<i8>, ptr<i8>, ptr<i8>, ptr<i8>, ptr<i8>, ptr<i8>, ptr<i8>, ptr<struct<"struct._IO_marker", (ptr<struct<"struct._IO_marker">>, ptr<struct<"struct._IO_FILE", (i32, ptr<i8>, ptr<i8>, ptr<i8>, ptr<i8>, ptr<i8>, ptr<i8>, ptr<i8>, ptr<i8>, ptr<i8>, ptr<i8>, ptr<i8>, ptr<struct<"struct._IO_marker">>, ptr<struct<"struct._IO_FILE">>, i32, i32, i64, i16, i8, array<1 x i8>, ptr<i8>, i64, ptr<i8>, ptr<i8>, ptr<i8>, ptr<i8>, i64, i32, array<20 x i8>)>>, i32, array<4 x i8>)>>, ptr<struct<"struct._IO_FILE", (i32, ptr<i8>, ptr<i8>, ptr<i8>, ptr<i8>, ptr<i8>, ptr<i8>, ptr<i8>, ptr<i8>, ptr<i8>, ptr<i8>, ptr<i8>, ptr<struct<"struct._IO_marker", (ptr<struct<"struct._IO_marker">>, ptr<struct<"struct._IO_FILE">>, i32, array<4 x i8>)>>, ptr<struct<"struct._IO_FILE">>, i32, i32, i64, i16, i8, array<1 x i8>, ptr<i8>, i64, ptr<i8>, ptr<i8>, ptr<i8>, ptr<i8>, i64, i32, array<20 x i8>)>>, i32, i32, i64, i16, i8, array<1 x i8>, ptr<i8>, i64, ptr<i8>, ptr<i8>, ptr<i8>, ptr<i8>, i64, i32, array<20 x i8>)>>
    %17 = llvm.icmp "ne" %15, %16 : !llvm.ptr<struct<(i32, ptr<i8>, ptr<i8>, ptr<i8>, ptr<i8>, ptr<i8>, ptr<i8>, ptr<i8>, ptr<i8>, ptr<i8>, ptr<i8>, ptr<i8>, ptr<struct<"struct._IO_marker", (ptr<struct<"struct._IO_marker">>, ptr<struct<"struct._IO_FILE", (i32, ptr<i8>, ptr<i8>, ptr<i8>, ptr<i8>, ptr<i8>, ptr<i8>, ptr<i8>, ptr<i8>, ptr<i8>, ptr<i8>, ptr<i8>, ptr<struct<"struct._IO_marker">>, ptr<struct<"struct._IO_FILE">>, i32, i32, i64, i16, i8, array<1 x i8>, ptr<i8>, i64, ptr<i8>, ptr<i8>, ptr<i8>, ptr<i8>, i64, i32, array<20 x i8>)>>, i32, array<4 x i8>)>>, ptr<struct<"struct._IO_FILE", (i32, ptr<i8>, ptr<i8>, ptr<i8>, ptr<i8>, ptr<i8>, ptr<i8>, ptr<i8>, ptr<i8>, ptr<i8>, ptr<i8>, ptr<i8>, ptr<struct<"struct._IO_marker", (ptr<struct<"struct._IO_marker">>, ptr<struct<"struct._IO_FILE">>, i32, array<4 x i8>)>>, ptr<struct<"struct._IO_FILE">>, i32, i32, i64, i16, i8, array<1 x i8>, ptr<i8>, i64, ptr<i8>, ptr<i8>, ptr<i8>, ptr<i8>, i64, i32, array<20 x i8>)>>, i32, i32, i64, i16, i8, array<1 x i8>, ptr<i8>, i64, ptr<i8>, ptr<i8>, ptr<i8>, ptr<i8>, i64, i32, array<20 x i8>)>>
    %18 = arith.xori %17, %true : i1
    scf.if %18 {
      %43 = llvm.mlir.addressof @stderr : !llvm.ptr<ptr<struct<(i32, ptr<i8>, ptr<i8>, ptr<i8>, ptr<i8>, ptr<i8>, ptr<i8>, ptr<i8>, ptr<i8>, ptr<i8>, ptr<i8>, ptr<i8>, ptr<struct<"struct._IO_marker", (ptr<struct<"struct._IO_marker">>, ptr<struct<"struct._IO_FILE", (i32, ptr<i8>, ptr<i8>, ptr<i8>, ptr<i8>, ptr<i8>, ptr<i8>, ptr<i8>, ptr<i8>, ptr<i8>, ptr<i8>, ptr<i8>, ptr<struct<"struct._IO_marker">>, ptr<struct<"struct._IO_FILE">>, i32, i32, i64, i16, i8, array<1 x i8>, ptr<i8>, i64, ptr<i8>, ptr<i8>, ptr<i8>, ptr<i8>, i64, i32, array<20 x i8>)>>, i32, array<4 x i8>)>>, ptr<struct<"struct._IO_FILE", (i32, ptr<i8>, ptr<i8>, ptr<i8>, ptr<i8>, ptr<i8>, ptr<i8>, ptr<i8>, ptr<i8>, ptr<i8>, ptr<i8>, ptr<i8>, ptr<struct<"struct._IO_marker", (ptr<struct<"struct._IO_marker">>, ptr<struct<"struct._IO_FILE">>, i32, array<4 x i8>)>>, ptr<struct<"struct._IO_FILE">>, i32, i32, i64, i16, i8, array<1 x i8>, ptr<i8>, i64, ptr<i8>, ptr<i8>, ptr<i8>, ptr<i8>, i64, i32, array<20 x i8>)>>, i32, i32, i64, i16, i8, array<1 x i8>, ptr<i8>, i64, ptr<i8>, ptr<i8>, ptr<i8>, ptr<i8>, i64, i32, array<20 x i8>)>>>
      %44 = llvm.load %43 : !llvm.ptr<ptr<struct<(i32, ptr<i8>, ptr<i8>, ptr<i8>, ptr<i8>, ptr<i8>, ptr<i8>, ptr<i8>, ptr<i8>, ptr<i8>, ptr<i8>, ptr<i8>, ptr<struct<"struct._IO_marker", (ptr<struct<"struct._IO_marker">>, ptr<struct<"struct._IO_FILE", (i32, ptr<i8>, ptr<i8>, ptr<i8>, ptr<i8>, ptr<i8>, ptr<i8>, ptr<i8>, ptr<i8>, ptr<i8>, ptr<i8>, ptr<i8>, ptr<struct<"struct._IO_marker">>, ptr<struct<"struct._IO_FILE">>, i32, i32, i64, i16, i8, array<1 x i8>, ptr<i8>, i64, ptr<i8>, ptr<i8>, ptr<i8>, ptr<i8>, i64, i32, array<20 x i8>)>>, i32, array<4 x i8>)>>, ptr<struct<"struct._IO_FILE", (i32, ptr<i8>, ptr<i8>, ptr<i8>, ptr<i8>, ptr<i8>, ptr<i8>, ptr<i8>, ptr<i8>, ptr<i8>, ptr<i8>, ptr<i8>, ptr<struct<"struct._IO_marker", (ptr<struct<"struct._IO_marker">>, ptr<struct<"struct._IO_FILE">>, i32, array<4 x i8>)>>, ptr<struct<"struct._IO_FILE">>, i32, i32, i64, i16, i8, array<1 x i8>, ptr<i8>, i64, ptr<i8>, ptr<i8>, ptr<i8>, ptr<i8>, i64, i32, array<20 x i8>)>>, i32, i32, i64, i16, i8, array<1 x i8>, ptr<i8>, i64, ptr<i8>, ptr<i8>, ptr<i8>, ptr<i8>, i64, i32, array<20 x i8>)>>>
      %45 = llvm.mlir.addressof @str7 : !llvm.ptr<array<45 x i8>>
      %46 = llvm.getelementptr %45[%c0_i32, %c0_i32] : (!llvm.ptr<array<45 x i8>>, i32, i32) -> !llvm.ptr<i8>
      %47 = llvm.load %4 : !llvm.ptr<ptr<i8>>
      %48 = call @__errno_location() : () -> memref<?xi32>
      %49 = affine.load %48[0] : memref<?xi32>
      %50 = call @__errno_location() : () -> memref<?xi32>
      %51 = affine.load %50[0] : memref<?xi32>
      %52 = call @strerror(%51) : (i32) -> !llvm.ptr<i8>
      %53 = llvm.call @fprintf(%44, %46, %47, %49, %52) : (!llvm.ptr<struct<(i32, ptr<i8>, ptr<i8>, ptr<i8>, ptr<i8>, ptr<i8>, ptr<i8>, ptr<i8>, ptr<i8>, ptr<i8>, ptr<i8>, ptr<i8>, ptr<struct<"struct._IO_marker", (ptr<struct<"struct._IO_marker">>, ptr<struct<"struct._IO_FILE", (i32, ptr<i8>, ptr<i8>, ptr<i8>, ptr<i8>, ptr<i8>, ptr<i8>, ptr<i8>, ptr<i8>, ptr<i8>, ptr<i8>, ptr<i8>, ptr<struct<"struct._IO_marker">>, ptr<struct<"struct._IO_FILE">>, i32, i32, i64, i16, i8, array<1 x i8>, ptr<i8>, i64, ptr<i8>, ptr<i8>, ptr<i8>, ptr<i8>, i64, i32, array<20 x i8>)>>, i32, array<4 x i8>)>>, ptr<struct<"struct._IO_FILE", (i32, ptr<i8>, ptr<i8>, ptr<i8>, ptr<i8>, ptr<i8>, ptr<i8>, ptr<i8>, ptr<i8>, ptr<i8>, ptr<i8>, ptr<i8>, ptr<struct<"struct._IO_marker", (ptr<struct<"struct._IO_marker">>, ptr<struct<"struct._IO_FILE">>, i32, array<4 x i8>)>>, ptr<struct<"struct._IO_FILE">>, i32, i32, i64, i16, i8, array<1 x i8>, ptr<i8>, i64, ptr<i8>, ptr<i8>, ptr<i8>, ptr<i8>, i64, i32, array<20 x i8>)>>, i32, i32, i64, i16, i8, array<1 x i8>, ptr<i8>, i64, ptr<i8>, ptr<i8>, ptr<i8>, ptr<i8>, i64, i32, array<20 x i8>)>>, !llvm.ptr<i8>, !llvm.ptr<i8>, i32, !llvm.ptr<i8>) -> i32
      call @exit(%c1_i32) : (i32) -> ()
    }
    %19 = llvm.mlir.addressof @str4 : !llvm.ptr<array<1 x i8>>
    %20 = llvm.load %19 : !llvm.ptr<array<1 x i8>>
    llvm.store %20, %2 : !llvm.ptr<array<1 x i8>>
    %21 = llvm.mlir.addressof @str8 : !llvm.ptr<array<9 x i8>>
    %22 = llvm.getelementptr %21[%c0_i32, %c0_i32] : (!llvm.ptr<array<9 x i8>>, i32, i32) -> !llvm.ptr<i8>
    %23 = llvm.call @getenv(%22) : (!llvm.ptr<i8>) -> !llvm.ptr<i8>
    llvm.store %23, %1 : !llvm.ptr<ptr<i8>>
    %24 = llvm.load %1 : !llvm.ptr<ptr<i8>>
    %25 = llvm.icmp "ne" %24, %11 : !llvm.ptr<i8>
    %26 = arith.xori %25, %true : i1
    scf.if %26 {
      %43 = llvm.getelementptr %2[%c0_i32, %c0_i32] : (!llvm.ptr<array<1 x i8>>, i32, i32) -> !llvm.ptr<i8>
      llvm.store %43, %1 : !llvm.ptr<ptr<i8>>
    }
    %27 = call @omp_get_max_threads() : () -> i32
    %28 = llvm.mlir.addressof @str9 : !llvm.ptr<array<10 x i8>>
    %29 = llvm.getelementptr %28[%c0_i32, %c0_i32] : (!llvm.ptr<array<10 x i8>>, i32, i32) -> !llvm.ptr<i8>
    llvm.store %29, %0 : !llvm.ptr<ptr<i8>>
    %30 = llvm.load %3 : !llvm.ptr<ptr<struct<(i32, ptr<i8>, ptr<i8>, ptr<i8>, ptr<i8>, ptr<i8>, ptr<i8>, ptr<i8>, ptr<i8>, ptr<i8>, ptr<i8>, ptr<i8>, ptr<struct<"struct._IO_marker", (ptr<struct<"struct._IO_marker">>, ptr<struct<"struct._IO_FILE", (i32, ptr<i8>, ptr<i8>, ptr<i8>, ptr<i8>, ptr<i8>, ptr<i8>, ptr<i8>, ptr<i8>, ptr<i8>, ptr<i8>, ptr<i8>, ptr<struct<"struct._IO_marker">>, ptr<struct<"struct._IO_FILE">>, i32, i32, i64, i16, i8, array<1 x i8>, ptr<i8>, i64, ptr<i8>, ptr<i8>, ptr<i8>, ptr<i8>, i64, i32, array<20 x i8>)>>, i32, array<4 x i8>)>>, ptr<struct<"struct._IO_FILE", (i32, ptr<i8>, ptr<i8>, ptr<i8>, ptr<i8>, ptr<i8>, ptr<i8>, ptr<i8>, ptr<i8>, ptr<i8>, ptr<i8>, ptr<i8>, ptr<struct<"struct._IO_marker", (ptr<struct<"struct._IO_marker">>, ptr<struct<"struct._IO_FILE">>, i32, array<4 x i8>)>>, ptr<struct<"struct._IO_FILE">>, i32, i32, i64, i16, i8, array<1 x i8>, ptr<i8>, i64, ptr<i8>, ptr<i8>, ptr<i8>, ptr<i8>, i64, i32, array<20 x i8>)>>, i32, i32, i64, i16, i8, array<1 x i8>, ptr<i8>, i64, ptr<i8>, ptr<i8>, ptr<i8>, ptr<i8>, i64, i32, array<20 x i8>)>>>
    %31 = llvm.mlir.addressof @str10 : !llvm.ptr<array<28 x i8>>
    %32 = llvm.getelementptr %31[%c0_i32, %c0_i32] : (!llvm.ptr<array<28 x i8>>, i32, i32) -> !llvm.ptr<i8>
    %33 = llvm.load %6 : !llvm.ptr<ptr<i8>>
    %34 = llvm.load %5 : !llvm.ptr<ptr<i8>>
    %35 = llvm.load %1 : !llvm.ptr<ptr<i8>>
    %36 = llvm.load %0 : !llvm.ptr<ptr<i8>>
    %37 = llvm.call @fprintf(%30, %32, %33, %34, %arg2, %35, %36, %27) : (!llvm.ptr<struct<(i32, ptr<i8>, ptr<i8>, ptr<i8>, ptr<i8>, ptr<i8>, ptr<i8>, ptr<i8>, ptr<i8>, ptr<i8>, ptr<i8>, ptr<i8>, ptr<struct<"struct._IO_marker", (ptr<struct<"struct._IO_marker">>, ptr<struct<"struct._IO_FILE", (i32, ptr<i8>, ptr<i8>, ptr<i8>, ptr<i8>, ptr<i8>, ptr<i8>, ptr<i8>, ptr<i8>, ptr<i8>, ptr<i8>, ptr<i8>, ptr<struct<"struct._IO_marker">>, ptr<struct<"struct._IO_FILE">>, i32, i32, i64, i16, i8, array<1 x i8>, ptr<i8>, i64, ptr<i8>, ptr<i8>, ptr<i8>, ptr<i8>, i64, i32, array<20 x i8>)>>, i32, array<4 x i8>)>>, ptr<struct<"struct._IO_FILE", (i32, ptr<i8>, ptr<i8>, ptr<i8>, ptr<i8>, ptr<i8>, ptr<i8>, ptr<i8>, ptr<i8>, ptr<i8>, ptr<i8>, ptr<i8>, ptr<struct<"struct._IO_marker", (ptr<struct<"struct._IO_marker">>, ptr<struct<"struct._IO_FILE">>, i32, array<4 x i8>)>>, ptr<struct<"struct._IO_FILE">>, i32, i32, i64, i16, i8, array<1 x i8>, ptr<i8>, i64, ptr<i8>, ptr<i8>, ptr<i8>, ptr<i8>, i64, i32, array<20 x i8>)>>, i32, i32, i64, i16, i8, array<1 x i8>, ptr<i8>, i64, ptr<i8>, ptr<i8>, ptr<i8>, ptr<i8>, i64, i32, array<20 x i8>)>>, !llvm.ptr<i8>, !llvm.ptr<i8>, !llvm.ptr<i8>, f64, !llvm.ptr<i8>, !llvm.ptr<i8>, i32) -> i32
    %38 = llvm.load %3 : !llvm.ptr<ptr<struct<(i32, ptr<i8>, ptr<i8>, ptr<i8>, ptr<i8>, ptr<i8>, ptr<i8>, ptr<i8>, ptr<i8>, ptr<i8>, ptr<i8>, ptr<i8>, ptr<struct<"struct._IO_marker", (ptr<struct<"struct._IO_marker">>, ptr<struct<"struct._IO_FILE", (i32, ptr<i8>, ptr<i8>, ptr<i8>, ptr<i8>, ptr<i8>, ptr<i8>, ptr<i8>, ptr<i8>, ptr<i8>, ptr<i8>, ptr<i8>, ptr<struct<"struct._IO_marker">>, ptr<struct<"struct._IO_FILE">>, i32, i32, i64, i16, i8, array<1 x i8>, ptr<i8>, i64, ptr<i8>, ptr<i8>, ptr<i8>, ptr<i8>, i64, i32, array<20 x i8>)>>, i32, array<4 x i8>)>>, ptr<struct<"struct._IO_FILE", (i32, ptr<i8>, ptr<i8>, ptr<i8>, ptr<i8>, ptr<i8>, ptr<i8>, ptr<i8>, ptr<i8>, ptr<i8>, ptr<i8>, ptr<i8>, ptr<struct<"struct._IO_marker", (ptr<struct<"struct._IO_marker">>, ptr<struct<"struct._IO_FILE">>, i32, array<4 x i8>)>>, ptr<struct<"struct._IO_FILE">>, i32, i32, i64, i16, i8, array<1 x i8>, ptr<i8>, i64, ptr<i8>, ptr<i8>, ptr<i8>, ptr<i8>, i64, i32, array<20 x i8>)>>, i32, i32, i64, i16, i8, array<1 x i8>, ptr<i8>, i64, ptr<i8>, ptr<i8>, ptr<i8>, ptr<i8>, i64, i32, array<20 x i8>)>>>
    %39 = llvm.mlir.addressof @stdout : !llvm.ptr<ptr<struct<(i32, ptr<i8>, ptr<i8>, ptr<i8>, ptr<i8>, ptr<i8>, ptr<i8>, ptr<i8>, ptr<i8>, ptr<i8>, ptr<i8>, ptr<i8>, ptr<struct<"struct._IO_marker", (ptr<struct<"struct._IO_marker">>, ptr<struct<"struct._IO_FILE", (i32, ptr<i8>, ptr<i8>, ptr<i8>, ptr<i8>, ptr<i8>, ptr<i8>, ptr<i8>, ptr<i8>, ptr<i8>, ptr<i8>, ptr<i8>, ptr<struct<"struct._IO_marker">>, ptr<struct<"struct._IO_FILE">>, i32, i32, i64, i16, i8, array<1 x i8>, ptr<i8>, i64, ptr<i8>, ptr<i8>, ptr<i8>, ptr<i8>, i64, i32, array<20 x i8>)>>, i32, array<4 x i8>)>>, ptr<struct<"struct._IO_FILE", (i32, ptr<i8>, ptr<i8>, ptr<i8>, ptr<i8>, ptr<i8>, ptr<i8>, ptr<i8>, ptr<i8>, ptr<i8>, ptr<i8>, ptr<i8>, ptr<struct<"struct._IO_marker", (ptr<struct<"struct._IO_marker">>, ptr<struct<"struct._IO_FILE">>, i32, array<4 x i8>)>>, ptr<struct<"struct._IO_FILE">>, i32, i32, i64, i16, i8, array<1 x i8>, ptr<i8>, i64, ptr<i8>, ptr<i8>, ptr<i8>, ptr<i8>, i64, i32, array<20 x i8>)>>, i32, i32, i64, i16, i8, array<1 x i8>, ptr<i8>, i64, ptr<i8>, ptr<i8>, ptr<i8>, ptr<i8>, i64, i32, array<20 x i8>)>>>
    %40 = llvm.load %39 : !llvm.ptr<ptr<struct<(i32, ptr<i8>, ptr<i8>, ptr<i8>, ptr<i8>, ptr<i8>, ptr<i8>, ptr<i8>, ptr<i8>, ptr<i8>, ptr<i8>, ptr<i8>, ptr<struct<"struct._IO_marker", (ptr<struct<"struct._IO_marker">>, ptr<struct<"struct._IO_FILE", (i32, ptr<i8>, ptr<i8>, ptr<i8>, ptr<i8>, ptr<i8>, ptr<i8>, ptr<i8>, ptr<i8>, ptr<i8>, ptr<i8>, ptr<i8>, ptr<struct<"struct._IO_marker">>, ptr<struct<"struct._IO_FILE">>, i32, i32, i64, i16, i8, array<1 x i8>, ptr<i8>, i64, ptr<i8>, ptr<i8>, ptr<i8>, ptr<i8>, i64, i32, array<20 x i8>)>>, i32, array<4 x i8>)>>, ptr<struct<"struct._IO_FILE", (i32, ptr<i8>, ptr<i8>, ptr<i8>, ptr<i8>, ptr<i8>, ptr<i8>, ptr<i8>, ptr<i8>, ptr<i8>, ptr<i8>, ptr<i8>, ptr<struct<"struct._IO_marker", (ptr<struct<"struct._IO_marker">>, ptr<struct<"struct._IO_FILE">>, i32, array<4 x i8>)>>, ptr<struct<"struct._IO_FILE">>, i32, i32, i64, i16, i8, array<1 x i8>, ptr<i8>, i64, ptr<i8>, ptr<i8>, ptr<i8>, ptr<i8>, i64, i32, array<20 x i8>)>>, i32, i32, i64, i16, i8, array<1 x i8>, ptr<i8>, i64, ptr<i8>, ptr<i8>, ptr<i8>, ptr<i8>, i64, i32, array<20 x i8>)>>>
    %41 = llvm.icmp "ne" %38, %40 : !llvm.ptr<struct<(i32, ptr<i8>, ptr<i8>, ptr<i8>, ptr<i8>, ptr<i8>, ptr<i8>, ptr<i8>, ptr<i8>, ptr<i8>, ptr<i8>, ptr<i8>, ptr<struct<"struct._IO_marker", (ptr<struct<"struct._IO_marker">>, ptr<struct<"struct._IO_FILE", (i32, ptr<i8>, ptr<i8>, ptr<i8>, ptr<i8>, ptr<i8>, ptr<i8>, ptr<i8>, ptr<i8>, ptr<i8>, ptr<i8>, ptr<i8>, ptr<struct<"struct._IO_marker">>, ptr<struct<"struct._IO_FILE">>, i32, i32, i64, i16, i8, array<1 x i8>, ptr<i8>, i64, ptr<i8>, ptr<i8>, ptr<i8>, ptr<i8>, i64, i32, array<20 x i8>)>>, i32, array<4 x i8>)>>, ptr<struct<"struct._IO_FILE", (i32, ptr<i8>, ptr<i8>, ptr<i8>, ptr<i8>, ptr<i8>, ptr<i8>, ptr<i8>, ptr<i8>, ptr<i8>, ptr<i8>, ptr<i8>, ptr<struct<"struct._IO_marker", (ptr<struct<"struct._IO_marker">>, ptr<struct<"struct._IO_FILE">>, i32, array<4 x i8>)>>, ptr<struct<"struct._IO_FILE">>, i32, i32, i64, i16, i8, array<1 x i8>, ptr<i8>, i64, ptr<i8>, ptr<i8>, ptr<i8>, ptr<i8>, i64, i32, array<20 x i8>)>>, i32, i32, i64, i16, i8, array<1 x i8>, ptr<i8>, i64, ptr<i8>, ptr<i8>, ptr<i8>, ptr<i8>, i64, i32, array<20 x i8>)>>
    %42 = scf.if %41 -> (i1) {
      %43 = llvm.load %3 : !llvm.ptr<ptr<struct<(i32, ptr<i8>, ptr<i8>, ptr<i8>, ptr<i8>, ptr<i8>, ptr<i8>, ptr<i8>, ptr<i8>, ptr<i8>, ptr<i8>, ptr<i8>, ptr<struct<"struct._IO_marker", (ptr<struct<"struct._IO_marker">>, ptr<struct<"struct._IO_FILE", (i32, ptr<i8>, ptr<i8>, ptr<i8>, ptr<i8>, ptr<i8>, ptr<i8>, ptr<i8>, ptr<i8>, ptr<i8>, ptr<i8>, ptr<i8>, ptr<struct<"struct._IO_marker">>, ptr<struct<"struct._IO_FILE">>, i32, i32, i64, i16, i8, array<1 x i8>, ptr<i8>, i64, ptr<i8>, ptr<i8>, ptr<i8>, ptr<i8>, i64, i32, array<20 x i8>)>>, i32, array<4 x i8>)>>, ptr<struct<"struct._IO_FILE", (i32, ptr<i8>, ptr<i8>, ptr<i8>, ptr<i8>, ptr<i8>, ptr<i8>, ptr<i8>, ptr<i8>, ptr<i8>, ptr<i8>, ptr<i8>, ptr<struct<"struct._IO_marker", (ptr<struct<"struct._IO_marker">>, ptr<struct<"struct._IO_FILE">>, i32, array<4 x i8>)>>, ptr<struct<"struct._IO_FILE">>, i32, i32, i64, i16, i8, array<1 x i8>, ptr<i8>, i64, ptr<i8>, ptr<i8>, ptr<i8>, ptr<i8>, i64, i32, array<20 x i8>)>>, i32, i32, i64, i16, i8, array<1 x i8>, ptr<i8>, i64, ptr<i8>, ptr<i8>, ptr<i8>, ptr<i8>, i64, i32, array<20 x i8>)>>>
      %44 = llvm.mlir.addressof @stderr : !llvm.ptr<ptr<struct<(i32, ptr<i8>, ptr<i8>, ptr<i8>, ptr<i8>, ptr<i8>, ptr<i8>, ptr<i8>, ptr<i8>, ptr<i8>, ptr<i8>, ptr<i8>, ptr<struct<"struct._IO_marker", (ptr<struct<"struct._IO_marker">>, ptr<struct<"struct._IO_FILE", (i32, ptr<i8>, ptr<i8>, ptr<i8>, ptr<i8>, ptr<i8>, ptr<i8>, ptr<i8>, ptr<i8>, ptr<i8>, ptr<i8>, ptr<i8>, ptr<struct<"struct._IO_marker">>, ptr<struct<"struct._IO_FILE">>, i32, i32, i64, i16, i8, array<1 x i8>, ptr<i8>, i64, ptr<i8>, ptr<i8>, ptr<i8>, ptr<i8>, i64, i32, array<20 x i8>)>>, i32, array<4 x i8>)>>, ptr<struct<"struct._IO_FILE", (i32, ptr<i8>, ptr<i8>, ptr<i8>, ptr<i8>, ptr<i8>, ptr<i8>, ptr<i8>, ptr<i8>, ptr<i8>, ptr<i8>, ptr<i8>, ptr<struct<"struct._IO_marker", (ptr<struct<"struct._IO_marker">>, ptr<struct<"struct._IO_FILE">>, i32, array<4 x i8>)>>, ptr<struct<"struct._IO_FILE">>, i32, i32, i64, i16, i8, array<1 x i8>, ptr<i8>, i64, ptr<i8>, ptr<i8>, ptr<i8>, ptr<i8>, i64, i32, array<20 x i8>)>>, i32, i32, i64, i16, i8, array<1 x i8>, ptr<i8>, i64, ptr<i8>, ptr<i8>, ptr<i8>, ptr<i8>, i64, i32, array<20 x i8>)>>>
      %45 = llvm.load %44 : !llvm.ptr<ptr<struct<(i32, ptr<i8>, ptr<i8>, ptr<i8>, ptr<i8>, ptr<i8>, ptr<i8>, ptr<i8>, ptr<i8>, ptr<i8>, ptr<i8>, ptr<i8>, ptr<struct<"struct._IO_marker", (ptr<struct<"struct._IO_marker">>, ptr<struct<"struct._IO_FILE", (i32, ptr<i8>, ptr<i8>, ptr<i8>, ptr<i8>, ptr<i8>, ptr<i8>, ptr<i8>, ptr<i8>, ptr<i8>, ptr<i8>, ptr<i8>, ptr<struct<"struct._IO_marker">>, ptr<struct<"struct._IO_FILE">>, i32, i32, i64, i16, i8, array<1 x i8>, ptr<i8>, i64, ptr<i8>, ptr<i8>, ptr<i8>, ptr<i8>, i64, i32, array<20 x i8>)>>, i32, array<4 x i8>)>>, ptr<struct<"struct._IO_FILE", (i32, ptr<i8>, ptr<i8>, ptr<i8>, ptr<i8>, ptr<i8>, ptr<i8>, ptr<i8>, ptr<i8>, ptr<i8>, ptr<i8>, ptr<i8>, ptr<struct<"struct._IO_marker", (ptr<struct<"struct._IO_marker">>, ptr<struct<"struct._IO_FILE">>, i32, array<4 x i8>)>>, ptr<struct<"struct._IO_FILE">>, i32, i32, i64, i16, i8, array<1 x i8>, ptr<i8>, i64, ptr<i8>, ptr<i8>, ptr<i8>, ptr<i8>, i64, i32, array<20 x i8>)>>, i32, i32, i64, i16, i8, array<1 x i8>, ptr<i8>, i64, ptr<i8>, ptr<i8>, ptr<i8>, ptr<i8>, i64, i32, array<20 x i8>)>>>
      %46 = llvm.icmp "ne" %43, %45 : !llvm.ptr<struct<(i32, ptr<i8>, ptr<i8>, ptr<i8>, ptr<i8>, ptr<i8>, ptr<i8>, ptr<i8>, ptr<i8>, ptr<i8>, ptr<i8>, ptr<i8>, ptr<struct<"struct._IO_marker", (ptr<struct<"struct._IO_marker">>, ptr<struct<"struct._IO_FILE", (i32, ptr<i8>, ptr<i8>, ptr<i8>, ptr<i8>, ptr<i8>, ptr<i8>, ptr<i8>, ptr<i8>, ptr<i8>, ptr<i8>, ptr<i8>, ptr<struct<"struct._IO_marker">>, ptr<struct<"struct._IO_FILE">>, i32, i32, i64, i16, i8, array<1 x i8>, ptr<i8>, i64, ptr<i8>, ptr<i8>, ptr<i8>, ptr<i8>, i64, i32, array<20 x i8>)>>, i32, array<4 x i8>)>>, ptr<struct<"struct._IO_FILE", (i32, ptr<i8>, ptr<i8>, ptr<i8>, ptr<i8>, ptr<i8>, ptr<i8>, ptr<i8>, ptr<i8>, ptr<i8>, ptr<i8>, ptr<i8>, ptr<struct<"struct._IO_marker", (ptr<struct<"struct._IO_marker">>, ptr<struct<"struct._IO_FILE">>, i32, array<4 x i8>)>>, ptr<struct<"struct._IO_FILE">>, i32, i32, i64, i16, i8, array<1 x i8>, ptr<i8>, i64, ptr<i8>, ptr<i8>, ptr<i8>, ptr<i8>, i64, i32, array<20 x i8>)>>, i32, i32, i64, i16, i8, array<1 x i8>, ptr<i8>, i64, ptr<i8>, ptr<i8>, ptr<i8>, ptr<i8>, i64, i32, array<20 x i8>)>>
      scf.yield %46 : i1
    } else {
      scf.yield %false : i1
    }
    scf.if %42 {
      %43 = llvm.load %3 : !llvm.ptr<ptr<struct<(i32, ptr<i8>, ptr<i8>, ptr<i8>, ptr<i8>, ptr<i8>, ptr<i8>, ptr<i8>, ptr<i8>, ptr<i8>, ptr<i8>, ptr<i8>, ptr<struct<"struct._IO_marker", (ptr<struct<"struct._IO_marker">>, ptr<struct<"struct._IO_FILE", (i32, ptr<i8>, ptr<i8>, ptr<i8>, ptr<i8>, ptr<i8>, ptr<i8>, ptr<i8>, ptr<i8>, ptr<i8>, ptr<i8>, ptr<i8>, ptr<struct<"struct._IO_marker">>, ptr<struct<"struct._IO_FILE">>, i32, i32, i64, i16, i8, array<1 x i8>, ptr<i8>, i64, ptr<i8>, ptr<i8>, ptr<i8>, ptr<i8>, i64, i32, array<20 x i8>)>>, i32, array<4 x i8>)>>, ptr<struct<"struct._IO_FILE", (i32, ptr<i8>, ptr<i8>, ptr<i8>, ptr<i8>, ptr<i8>, ptr<i8>, ptr<i8>, ptr<i8>, ptr<i8>, ptr<i8>, ptr<i8>, ptr<struct<"struct._IO_marker", (ptr<struct<"struct._IO_marker">>, ptr<struct<"struct._IO_FILE">>, i32, array<4 x i8>)>>, ptr<struct<"struct._IO_FILE">>, i32, i32, i64, i16, i8, array<1 x i8>, ptr<i8>, i64, ptr<i8>, ptr<i8>, ptr<i8>, ptr<i8>, i64, i32, array<20 x i8>)>>, i32, i32, i64, i16, i8, array<1 x i8>, ptr<i8>, i64, ptr<i8>, ptr<i8>, ptr<i8>, ptr<i8>, i64, i32, array<20 x i8>)>>>
      %44 = llvm.call @fclose(%43) : (!llvm.ptr<struct<(i32, ptr<i8>, ptr<i8>, ptr<i8>, ptr<i8>, ptr<i8>, ptr<i8>, ptr<i8>, ptr<i8>, ptr<i8>, ptr<i8>, ptr<i8>, ptr<struct<"struct._IO_marker", (ptr<struct<"struct._IO_marker">>, ptr<struct<"struct._IO_FILE", (i32, ptr<i8>, ptr<i8>, ptr<i8>, ptr<i8>, ptr<i8>, ptr<i8>, ptr<i8>, ptr<i8>, ptr<i8>, ptr<i8>, ptr<i8>, ptr<struct<"struct._IO_marker">>, ptr<struct<"struct._IO_FILE">>, i32, i32, i64, i16, i8, array<1 x i8>, ptr<i8>, i64, ptr<i8>, ptr<i8>, ptr<i8>, ptr<i8>, i64, i32, array<20 x i8>)>>, i32, array<4 x i8>)>>, ptr<struct<"struct._IO_FILE", (i32, ptr<i8>, ptr<i8>, ptr<i8>, ptr<i8>, ptr<i8>, ptr<i8>, ptr<i8>, ptr<i8>, ptr<i8>, ptr<i8>, ptr<i8>, ptr<struct<"struct._IO_marker", (ptr<struct<"struct._IO_marker">>, ptr<struct<"struct._IO_FILE">>, i32, array<4 x i8>)>>, ptr<struct<"struct._IO_FILE">>, i32, i32, i64, i16, i8, array<1 x i8>, ptr<i8>, i64, ptr<i8>, ptr<i8>, ptr<i8>, ptr<i8>, i64, i32, array<20 x i8>)>>, i32, i32, i64, i16, i8, array<1 x i8>, ptr<i8>, i64, ptr<i8>, ptr<i8>, ptr<i8>, ptr<i8>, i64, i32, array<20 x i8>)>>) -> i32
    }
    return
  }
  func @_ZN8dwt_cuda13CudaDWTTester19checkLastKernelCallEPKc(%arg0: !llvm.ptr<i8>) -> i8 attributes {llvm.linkage = #llvm.linkage<linkonce_odr>} {
    %c1_i8 = arith.constant 1 : i8
    %c1_i64 = arith.constant 1 : i64
    %0 = llvm.alloca %c1_i64 x !llvm.ptr<i8> : (i64) -> !llvm.ptr<ptr<i8>>
    llvm.store %arg0, %0 : !llvm.ptr<ptr<i8>>
    return %c1_i8 : i8
  }
  func private @__errno_location() -> memref<?xi32> attributes {llvm.linkage = #llvm.linkage<external>}
  func private @strerror(i32) -> !llvm.ptr<i8> attributes {llvm.linkage = #llvm.linkage<external>}
  func private @exit(i32) attributes {llvm.linkage = #llvm.linkage<external>}
  func private @omp_get_max_threads() -> i32 attributes {llvm.linkage = #llvm.linkage<external>}
  func @_ZN8dwt_cuda13CudaDWTTester5checkERK9cudaErrorPKc(%arg0: memref<?xi32>, %arg1: !llvm.ptr<i8>) -> i8 attributes {llvm.linkage = #llvm.linkage<linkonce_odr>} {
    %c1_i8 = arith.constant 1 : i8
    %c1_i64 = arith.constant 1 : i64
    %0 = llvm.alloca %c1_i64 x !llvm.ptr<i8> : (i64) -> !llvm.ptr<ptr<i8>>
    llvm.store %arg1, %0 : !llvm.ptr<ptr<i8>>
    return %c1_i8 : i8
  }
}
